experiments/img2img/checkpoints/male_female_classifier.pth (torch, 669123 bytes, 13 tensors)

layer1.0.weight f4 [256, 512]
00000000: f5d5 e4bd c55b 0e3b b122 c53c 211b dbbb
00000010: b853 25bd 9f60 f43c 4ce4 72bd 0235 2cbe
00000020: bab7 dfbd ddf4 a23d 0b7a b8bb ec95 3cbd
00000030: cb38 283d b00b bc3d 162a 5fbb 2ecf b2bc
00000040: 4d2d 33bd cbc2 39bd 1f99 303d f2ef 0a3c
00000050: ecd4 273e c209 96bc d177 52bd 3947 3d3b
00000060: 3483 863d 4a3c 41bd b165 973d efbd be3d
00000070: de95 72bb 9630 aabd 9e95 2b3e c2d9 ff3c
00000080: b690 0a3d 2b17 7d3d bb0e 0dbd 3958 b93d
00000090: 0fac f43c 6083 d9bd e1f3 01bd c899 2e3d
000000a0: 5416 21bc 9898 37bc 6f3a 5b3c 3b2f 503c
000000b0: 948d e2bd d5ea 7bbd 1390 c33d 7673 a03d
000000c0: fb44 823d 6360 2cbd c708 ec3d 138e b4bd
000000d0: a64a 89bd 3f61 1ebd 1665 10bc f4eb 723d
000000e0: 8e73 f7bb e385 d33c 52f3 bbbd c17b 0fbe
000000f0: d0f4 ba3c 2549 f7bc 6243 6ebd bdad 4ebc
00000100: 43a3 06be 30ec 1c3e 58df 4ebe 69aa 55bd
00000110: 310e 583b 787d b03d 6b72 3fbd a3ce 17bc
00000120: 69c5 89bc 6e98 ac3c 97ac 88bd 0fdd 553d
00000130: 1fc1 323d 4dea 943d 65c9 263c a332 5a3d
00000140: e009 0dbd 675c b43d be80 83bd 5f0c 9fbd
00000150: 5662 04be 78c4 3e3e c256 07bd 9d48 893d
00000160: 9572 8d3d 97f0 87bd 9cbd 1d3b e521 24bb
00000170: 0455 043e 769d 09be d98f f4bd 1be0 f03d
00000180: 9634 9fbd 3e56 93bc bc36 5abd 0804 46bd
00000190: 77c3 863c ff1b 97bc 5070 e5bc 94e1 84bd
000001a0: 9d17 6fbe 0829 dd3c 32ae e23a cb02 b63d
000001b0: d7d0 9b3d 7493 003d b69f 89bd e536 693c
000001c0: 6722 6abd d4ee 573d 12df 99be 2a15 a43d
000001d0: 0b06 1cbd 82ba 5abb 5366 383d 8851 7bbc
000001e0: c231 d7bd bca6 be3c d953 ccbc 5799 813c
000001f0: 58cb 38bd 8b58 743d 9c02 cabd 270f c53d
00000200: d9ba 46bc 015b a93d adf8 7e3d c443 3f3d
00000210: 2f17 54bd d221 5f3d d6b6 ba3d c1d1 8f3d
00000220: e381 67bd fec0 a3bb 2145 89bd 9f2d 843b
00000230: eec3 06bd d44a f2bc 33ad b33c de45 9d3d
00000240: 9394 4dbe f119 803c 53be ebbc df1c 8c3c
00000250: be15 45bc 7aa8 cb3d 304b b73d 00b7 45bd
00000260: dc1b da3c 8d68 68bd 05a0 87bd 7b8b 55bd
00000270: a720 bf3d fdc5 8bbd 215a 07bd 885b f1bc
00000280: 4608 8bbd 9245 09be dee2 71bd 1d21 603d
00000290: 933c 9cbd 81f8 00bd 13fb 733d 77ae f93c
000002a0: fb7f 8b3d 9a5d 01bc 5e12 0f3d 6d6c ad3c
000002b0: bcb1 7c3e 9639 82bd a297 1dbe 8056 bd3d
000002c0: 56b1 0b3d 383d 793e 44ed 1cbd 27b3 b03c
000002d0: 1db9 b03d 1115 49bd 83a8 4c3d 5059 bf3d
000002e0: 24d2 883d ac01 703e b0d8 2bbd b690 b5bc
000002f0: 3ea3 4fbd d351 a7bd 973f b1bd 0108 ce3d
00000300: c9c4 13bc f224 38bd e25e 4bbc 23c8 d339
00000310: 9ca1 c73c 67b6 b9bd 4a08 573d a9fe 1abe
00000320: 7716 1abd a082 3d3e 3eb5 52bd 62b6 183e
00000330: 0ded 183d 50e8 8ebd e1da d13d fbb6 20bd
00000340: 4c55 f0bc 63c0 443c fb15 06bd 9f07 f73d
00000350: 894f f3bd 18f7 5f3c 715a acbc 5fc4 233e
00000360: 3b41 9d3d 7c28 08be de34 85bd f29c c4bd
00000370: a1aa 913a 5c88 ff3c e79d 08be 42bd c1bc
00000380: c646 3e3d 1f26 9ebd 04b2 9f3d c097 903c
00000390: a61e 193c 9136 753d 69a9 a83e ad0a 15be
000003a0: 6a9e 1dbd 0609 0abe 5a84 6ebd f1e8 8db9
000003b0: 0a4b 02bd 6df9 f5bc cfbf f6bc 608b 54bd
000003c0: 2021 2dbd 6122 aabd 9268 86be 9cff c83c
000003d0: 8b6b 91bd 9c7b adbc 716f 963d c8a0 2abd
000003e0: 111d 473d 37c9 29bd 5310 943c 6b0e 9aba
000003f0: e4b6 463d 1a7f 40bb df56 b53d c0b6 093e
-0.111736216 0.002172218 0.024064394 -0.0066865836 -0.040363044 0.029831229 -0.059299752 -0.16817096
-0.10923715 0.0795686 -0.005629783 -0.046041414 0.041069787 0.09181917 -0.0034052185 -0.021827307
-0.043744374 -0.045351785 0.043114778 0.008480059 0.16389817 -0.0183152 -0.051383797 0.0028881563
0.06567994 -0.047176637 0.07392443 0.09313571 -0.0037015597 -0.08310048 0.16756293 0.031231765
0.033829413 0.061789673 -0.034437876 0.0905003 0.0298672 -0.10620761 -0.03172672 0.042627126
-0.009831984 -0.011205815 0.013380631 0.012706573 -0.1106216 -0.06150325 0.09548964 0.078345224
0.06360813 -0.04208411 0.11525112 -0.08816161 -0.06703691 -0.03866696 -0.008813163 0.059307054
-0.007551617 0.025820678 -0.09177269 -0.14012052 0.022821814 -0.030186245 -0.05816973 -0.012614665
-0.13148217 0.15324473 -0.20202386 -0.05216447 0.0032967443 0.08617681 -0.046739977 -0.009265575
-0.016817765 0.021068778 -0.06673544 0.05221277 0.043641206 0.07271252 0.010179852 0.053270947
-0.034433246 0.08806687 -0.0642104 -0.077660315 -0.12928137 0.18629634 -0.033041723 0.06703303
0.069066204 -0.06637686 0.0024069315 -0.0025044617 0.12923056 -0.13438973 -0.11941499 0.11761495
-0.07773702 -0.01798546 -0.053274855 -0.04834369 0.016450627 -0.018445967 -0.028007656 -0.06488338
-0.23348852 0.026997104 0.0017294346 0.088872515 0.076081924 0.031390622 -0.067199156 0.014234279
-0.057161715 0.052718 -0.30053002 0.08011849 -0.0380917 -0.0033375327 0.04501946 -0.015339263
-0.105075374 0.023272865 -0.024942325 0.015820188 -0.0451158 0.059654754 -0.09863779 0.09622031
-0.012129509 0.08269311 0.062248874 0.046695486 -0.051779922 0.054475613 0.091169044 0.07022429
-0.056520354 -0.0049973717 -0.067026384 0.004033759 -0.032901697 -0.029576696 0.021933174 0.07679342
-0.20076208 0.01563737 -0.028777277 0.01710361 -0.0120291095 0.09944244 0.08949888 -0.048270226
0.026624613 -0.056740332 -0.06622318 -0.052134972 0.093324 -0.06824873 -0.033044938 -0.02946259
-0.067886874 -0.13405445 -0.059054248 0.05471908 -0.07628741 -0.03148699 0.059565615 0.0304787
0.0681152 -0.0078958515 0.034929626 0.021169866 0.24677175 -0.0635864 -0.15389875 0.09245014
0.034104668 0.2433976 -0.03831221 0.021569801 0.086290576 -0.049092356 0.049965393 0.09343207
0.06680706 0.23438138 -0.041954696 -0.02216373 -0.05069279 -0.081699036 -0.08654707 0.100601204
-0.009019085 -0.04495711 -0.012412759 0.0004039417 0.024369054 -0.090679936 0.05249814 -0.15136208
-0.03761908 0.1850686 -0.051442377 0.14913324 0.037335444 -0.06977904 0.10246826 -0.039237004
-0.029337548 0.012008759 -0.032735806 0.120620005 -0.118804045 0.013669752 -0.02103922 0.15992878
0.07678457 -0.13296694 -0.06504224 -0.096002474 0.0011113473 0.03119295 -0.13341485 -0.023649815
0.046454214 -0.07722115 0.07797626 0.017650485 0.009345686 0.05986649 0.3294175 -0.14554854
-0.038481154 -0.13480005 -0.05823169 -0.0002706717 -0.031809844 -0.030026162 -0.030120758 -0.05189073
-0.04226792 -0.083073385 -0.26251656 0.024535947 -0.0710059 -0.021177106 0.073454745 -0.04165724
0.048611704 -0.04145166 0.01807419 -0.0011753564 0.04851426 -0.0029372633 0.0885446 0.1344862

layer1.0.bias f4 [256]
00000000: 33af 7fb6 af53 4fb5 ccbf bdb6 e384 8b36
00000010: 3cf3 3336 0b26 8836 6a1d f1b6 7e31 0633
00000020: 12f5 a0b5 397c 3b36 c1ca 8035 8cda df35
00000030: 83d6 5136 0141 50b6 30e8 a8b3 bfd6 9336
00000040: 7350 8f35 09e4 71b6 f066 05b7 1882 91b5
00000050: b9cd ce36 cb89 ffb5 6448 9936 0afe 5737
00000060: 8c05 fe36 e010 acb6 a255 4f35 1be3 2d37
00000070: 0621 b8b5 b467 17b6 5b7c cfb6 b1ed 3db4
00000080: 5425 18b6 a07c a136 be28 f2b6 da28 89b6
00000090: 0bc7 2736 6518 c8b4 16f3 86b6 ae65 0136
000000a0: ab0a 0538 3b45 abb5 42fe 3536 af48 a935
000000b0: 94b2 ae36 7fac 10b5 2e59 2536 e247 3eb5
000000c0: 4a44 e034 6793 a835 93e0 8036 dd03 0e35
000000d0: f3be ed36 37d6 e2b5 84f1 abb5 f023 ef36
000000e0: 8df7 c3b6 6657 bfb4 7815 9736 9f32 b3b5
000000f0: d5e9 8335 cd7c b634 c91d 89b4 11e0 ba34
00000100: abd2 8e35 e3bc 5eb5 4e46 dbb6 f003 2635
00000110: ef8f 9035 0194 6636 beb4 8c35 7445 1f37
00000120: a9b0 f9b6 2acb 2436 8d18 b533 2d56 2bb5
00000130: 92c8 02b6 24ec a2b6 d068 cdb6 5d9f 1a36
00000140: 4aa4 8d35 7d40 06b6 3c3b 05b7 ff80 e2b6
00000150: 0d12 7fb3 b4c0 d834 e68a c4b6 f3f0 6936
00000160: 34a3 a135 dd3e 5237 ed8e ceb6 f9a4 3936
00000170: ca5d 8fb6 c7d7 bd36 2f02 fab5 fb79 9935
00000180: de31 03b6 4c93 92b6 6029 1337 8a99 10b7
00000190: cb5e 08b7 c18e d1b5 3abb 47b6 5e15 9f36
000001a0: 24ea f7b5 ab04 8b36 12a7 98b6 4839 fd35
000001b0: 4836 9a36 6a4f 91b6 6ce0 ca36 3094 19b6
000001c0: 5ebb 0ab6 0b70 93b6 612f 4fb6 b808 0db7
000001d0: 72c2 b736 9f98 0636 fbef 4cb6 b097 d335
000001e0: cb0f c8b6 e44f 19b7 75d2 bdb5 3314 05b7
000001f0: 4824 55b5 c4ca 23b7 30ac 90b7 7617 2636
00000200: 5ef7 5437 8dc5 3d36 64d8 44b5 8b1a 05b7
00000210: 1f7e 8435 a09f 2b35 258a 40b6 56f4 ccb6
00000220: 6afe 63b4 6430 1b37 16c8 76b6 ebad c1b4
00000230: 1ae0 f636 cde5 35b4 75f0 8a36 2b2e 6236
00000240: d1f2 b1b4 680d 4337 c5e0 53b6 92dd 95b4
00000250: dbd4 60b3 7992 e4b6 c287 d5b5 fb82 e233
00000260: 2dea 0e36 8d9e f133 d9a0 a735 26d5 5236
00000270: 3b2d a9b5 627d b4b5 1e90 47b7 33d9 1bb5
00000280: 6bce 3c36 2ea2 d836 cbda d0b6 b79c 2f37
00000290: 6b3a 69b6 1997 1cb3 6769 f535 0b84 99b1
000002a0: f66f 67b5 6c63 a236 1e34 1436 9ffc 1b36
000002b0: 6151 be36 42d6 f0b5 5083 ce36 1e52 9bb5
000002c0: b0a3 8735 ebfe f1b6 c29f 18b7 5032 b5b4
000002d0: f92d 1fb6 0f99 cab6 3f9b 9e35 6de8 23b6
000002e0: 1996 3cb4 cf63 4436 9644 6db5 b96f f633
000002f0: 81f6 3336 0de4 e736 c490 a1b6 565d a036
00000300: 481b 6a36 309a 4db5 c0c6 1536 f8b8 2535
00000310: 3ca4 ddb6 6913 00b6 edb9 b5b6 eb36 4435
00000320: b7ca 3435 be79 8335 5354 9fb6 be2d 0c37
00000330: bce1 26b6 118f bd36 3947 ea36 439e 14b5
00000340: b205 7fb6 ec85 2f37 3954 9636 96bb 8036
00000350: 6fda e3b5 aa93 e734 52bd d936 e5bd 0434
00000360: 8fcd d636 6300 11b6 cc58 90b4 0ae6 77b5
00000370: baf9 79b5 19fb 81b6 1e23 aeb5 ea71 0536
00000380: b6b0 0eb5 fe4a 8636 acf4 b436 13d3 4834
00000390: 713d d535 8763 fd36 7017 bfb6 b4de eb36
000003a0: a25c cf36 4d1c c6b6 0fe5 86b6 3bb3 e6b6
000003b0: 4ed9 9db4 bf2a cdb4 4dbd c236 8e5b 02b7
000003c0: fd20 a235 bd99 6735 347d 39b6 e304 0db6
000003d0: abf7 1537 63bb e9b6 6400 efb3 1bf0 5b34
000003e0: 242b ceb5 91d0 c3b5 be61 2635 955d 0536
000003f0: ed8f ffb5 f0aa 9635 2927 29b7 3730 6fb6
-3.809994e-06 -7.7235285e-07 -5.654967e-06 4.157993e-06 2.681466e-06 4.0575446e-06 -7.185784e-06 3.124432e-08
-1.1992254e-06 2.7937479e-06 9.595752e-07 1.66784e-06 3.126829e-06 -3.1032253e-06 -7.865344e-08 4.405941e-06
1.0677744e-06 -3.6044532e-06 -7.951385e-06 -1.0841204e-06 6.1632277e-06 -1.9039084e-06 4.5681827e-06 1.2874147e-05
7.5704356e-06 -5.127964e-06 7.723812e-07 1.0364481e-05 -1.3718679e-06 -2.2561117e-06 -6.1835576e-06 -1.7688468e-07
-2.2671493e-06 4.812682e-06 -7.216905e-06 -4.087674e-06 2.5000797e-06 -3.7270652e-07 -4.02181e-06 1.9281683e-06
3.1719606e-05 -1.2760642e-06 2.71191e-06 1.2612635e-06 5.2063933e-06 -5.3895195e-07 2.4638825e-06 -7.088512e-07
4.1772938e-07 1.2559875e-06 3.840841e-06 5.2904744e-07 7.08538e-06 -1.6900657e-06 -1.2810783e-06 7.1269387e-06
-5.8402716e-06 -3.5640113e-07 4.50265e-06 -1.3351272e-06 9.828315e-07 3.3990946e-07 -2.553991e-07 3.480823e-07
1.0641137e-06 -8.297631e-07 -6.534893e-06 6.184555e-07 1.0770726e-06 3.435882e-06 1.0483416e-06 9.493309e-06
-7.441344e-06 2.4556161e-06 8.432935e-08 -6.3827866e-07 -1.9488257e-06 -4.8554666e-06 -6.121678e-06 2.304055e-06
1.0553133e-06 -2.0005093e-06 -7.941209e-06 -6.750342e-06 -5.938823e-08 4.0373345e-07 -5.857425e-06 3.4859956e-06
1.2042933e-06 1.2531612e-05 -6.155917e-06 2.7663175e-06 -4.2726506e-06 5.6577587e-06 -1.8627087e-06 1.1434889e-06
-1.9549548e-06 -4.3682867e-06 8.771516e-06 -8.618817e-06 -8.128302e-06 -1.561326e-06 -2.976229e-06 4.7410567e-06
-1.8471078e-06 4.1430662e-06 -4.5494025e-06 1.886664e-06 4.595877e-06 -4.3305818e-06 6.0461953e-06 -2.2885033e-06
-2.0672665e-06 -4.393985e-06 -3.0872982e-06 -8.406285e-06 5.4764614e-06 2.0056393e-06 -3.0538056e-06 1.5764872e-06
-5.962303e-06 -9.138112e-06 -1.4142848e-06 -7.932121e-06 -7.940148e-07 -9.762767e-06 -1.7246319e-05 2.4749584e-06
1.2693779e-05 2.8278184e-06 -7.333058e-07 -7.933598e-06 9.871472e-07 6.393475e-07 -2.869064e-06 -6.108118e-06
-2.1233578e-07 9.249987e-06 -3.6773322e-06 -3.6075593e-07 7.35746e-06 -1.694054e-07 4.1407134e-06 3.3703498e-06
-3.314549e-07 1.1626027e-05 -3.1572283e-06 -2.7914626e-07 -5.2347655e-08 -6.811981e-06 -1.5909247e-06 1.054777e-07
2.1295957e-06 1.1251277e-07 1.2489282e-06 3.1416507e-06 -1.2604645e-06 -1.3447536e-06 -1.1894879e-05 -5.8058066e-07
2.8134334e-06 6.456182e-06 -6.224354e-06 1.0467301e-05 -3.475371e-06 -3.6459003e-08 1.8284599e-06 -4.4678976e-09
-8.621713e-07 4.8395505e-06 2.2084055e-06 2.3243845e-06 5.671915e-06 -1.7943751e-06 6.154565e-06 -1.1572299e-06
1.0105923e-06 -7.212036e-06 -9.0971025e-06 -3.3750484e-07 -2.3719606e-06 -6.0378875e-06 1.18171e-06 -2.4424182e-06
-1.756347e-07 2.9264372e-06 -8.8389186e-07 1.147559e-07 2.6816563e-06 6.910885e-06 -4.815027e-06 4.7792373e-06
3.4884597e-06 -7.6592823e-07 2.2318418e-06 6.1736455e-07 -6.6054326e-06 -1.9084785e-06 -5.415865e-06 7.3095606e-07
6.7350214e-07 9.795692e-07 -4.748386e-06 8.3553e-06 -2.4867322e-06 5.649294e-06 6.982035e-06 -5.53646e-07
-3.8001276e-06 1.0461994e-05 4.480153e-06 3.836535e-06 -1.697639e-06 4.3134543e-07 6.4891437e-06 1.2362541e-07
6.401627e-06 -2.1606909e-06 -2.6886698e-07 -9.234942e-07 -9.312313e-07 -3.873731e-06 -1.2974231e-06 1.988485e-06
-5.315627e-07 4.0022414e-06 5.3929016e-06 1.870324e-07 1.5887618e-06 7.551574e-06 -5.694972e-06 7.029472e-06
6.1798646e-06 -5.9041545e-06 -4.020177e-06 -6.8753993e-06 -2.940164e-07 -3.8215327e-07 5.803688e-06 -7.769921e-06
1.2079541e-06 8.6277925e-07 -2.7640026e-06 -2.1013482e-06 8.938757e-06 -6.965756e-06 -1.1129376e-07 2.0483314e-07
-1.5360752e-06 -1.4589333e-06 6.198205e-07 1.9873016e-06 -1.9040868e-06 1.122562e-06 -1.0082303e-05 -3.564184e-06

layer1.1.weight f4 [256]
00000000: 3486 803f a4af 623f 87e8 7b3f 0514 763f
00000010: 4818 703f 3bfb 653f fd28 6a3f 9ccc 643f
00000020: 9690 743f 4c85 763f 396c 773f 3c21 6a3f
00000030: 31c6 203f 07ee 5f3f a89f 6f3f 4e12 7a3f
00000040: 281a 693f a7cc 6f3f 58fb 633f 0066 613f
00000050: c0c2 8a3f 7e4d 5a3f bbe9 543f 7bd1 863f
00000060: 48d2 813f a4c3 803f 5632 763f c627 773f
00000070: c62c 743f 22c9 853f 7b4a 623f 0e00 693f
00000080: 9fba 803f c702 833f a032 7f3f db6b 6e3f
00000090: 1675 803f 3a44 793f 9622 6c3f b3bb 6d3f
000000a0: 7409 893f 2aa5 6c3f 58e1 6d3f 8d66 783f
000000b0: 6d01 6c3f be42 6a3f ea2c 683f f311 533f
000000c0: 1ca7 483f ff7c 6a3f 0edb 523f 22cb 563f
000000d0: 0ea9 6e3f 2ad4 573f 1da5 653f 2521 633f
000000e0: 9d0d 693f d31c 3c3f 5989 863f 16b0 653f
000000f0: 830a 6e3f 1f49 583f e5f7 7c3f 38bd 613f
00000100: 865e 653f 576a 743f bdca 793f bdbf 6e3f
00000110: b75b 313f af66 723f 24ce 843f 0717 853f
00000120: 8a5e 703f 791d 683f c2d8 713f e06d 633f
00000130: 61bb 673f 9691 6f3f 5e55 7b3f abe2 763f
00000140: f004 6f3f 9e9f 733f 2a27 703f ad6b 703f
00000150: d578 663f 295a 803f 1dab 7a3f aa8b 613f
00000160: 49ab 733f 9264 7a3f 668d 733f c292 753f
00000170: f335 743f cd01 833f c61e 6d3f 0a42 783f
00000180: 0793 833f 9a22 7d3f 9598 7f3f 98e1 793f
00000190: 925e 723f e66e 593f 48a2 6b3f 0361 693f
000001a0: 9655 7f3f abbe 853f 5de5 843f 7a94 683f
000001b0: f1d6 743f d480 813f 087e 6d3f 7ed7 673f
000001c0: 9b88 7e3f d1b4 813f c6dd 523f 0646 693f
000001d0: 4f72 703f 055d 883f 1c5e 563f b693 803f
000001e0: 1107 883f 9775 713f fa9b 6f3f 946b 6f3f
000001f0: b19c 6e3f 5188 653f cd65 833f c81b 7d3f
00000200: 70da 833f b1b0 633f 8f90 353f c3f1 8d3f
00000210: 3cc9 633f 81be 523f 716d 6e3f 014b 7d3f
00000220: 0589 753f 0538 773f 777a 523f 5a03 5d3f
00000230: 6b16 7e3f 76ac 7a3f e2a0 833f 4cd2 633f
00000240: abb7 763f e553 643f 147b 633f ff6b 663f
00000250: 39c2 433f 116c 823f 9985 4a3f 2fcc 663f
00000260: f3b1 783f 3239 523f 72cf 733f c160 823f
00000270: 7cca 6b3f a658 7f3f 5b0a 6b3f 8272 603f
00000280: 4759 6c3f e25f 6d3f 28b2 763f 2b28 683f
00000290: f1a0 643f 91fe 663f c2db 5c3f 1318 513f
000002a0: af9e 273f 4d18 773f 8ce0 4f3f 5ccd 793f
000002b0: e5f3 863f 452d 4c3f 582d 813f 0899 5b3f
000002c0: 5ae5 763f f064 693f b613 7a3f 9334 6d3f
000002d0: 9298 6b3f 65f5 593f b283 593f 42e0 673f
000002e0: ace9 6a3f e6b8 773f ac46 6c3f e3f5 5f3f
000002f0: 8fa9 853f 7b93 7f3f a892 723f e979 6c3f
00000300: b48e 7b3f 0286 5b3f 8d2f 7b3f 8135 783f
00000310: b020 723f b7bd 653f 3ee9 6c3f 3bf2 783f
00000320: 4a14 4f3f 51fa 6f3f 61d0 723f 4f43 5a3f
00000330: df94 6f3f d710 6c3f 2740 723f 7156 6d3f
00000340: 1427 6e3f df39 713f 8c4b 713f 693a 803f
00000350: 1d2e 6c3f e91a 4a3f 8523 2f3f 3302 683f
00000360: 7d0f 703f 8b70 543f beaa 803f 4a01 583f
00000370: 1a7d 6c3f 489b 523f 92c7 813f b6b0 633f
00000380: 2fd5 723f 2c7a 713f ea0f 793f cdda 5b3f
00000390: ca74 6d3f 7966 6d3f 0eac 7c3f c19d 6e3f
000003a0: b397 5f3f caf0 853f 0609 6a3f 539d 733f
000003b0: b332 6c3f 67ac 653f 3223 673f b83a 803f
000003c0: 7865 6d3f cbc3 6a3f 7b32 6c3f 82fa 573f
000003d0: 66d5 843f f7d4 503f ce08 253f 080e 763f
000003e0: ecc6 6c3f 57ca 6f3f 0d0a 443f 5475 6e3f
000003f0: 44c0 783f 1a58 5a3f 9e15 703f d4dd 7d3f
1.0040956 0.88549256 0.98401684 0.961243 0.9378705 0.8983647 0.91468793 0.8937471
0.9553312 0.96297145 0.9664951 0.9145696 0.62802416 0.87472576 0.9360299 0.9768418
0.91055536 0.9367165 0.89055395 0.88046265 1.0840683 0.85274494 0.83169144 1.0532678
1.0142298 1.0059705 0.96170557 0.96545064 0.9538082 1.0452006 0.883949 0.9101571
1.0056952 1.0235223 0.9968662 0.93133324 1.0035732 0.9736973 0.92240274 0.9286453
1.070601 0.9243952 0.9292197 0.9703148 0.92189676 0.9150809 0.90693533 0.82449263
0.7837999 0.9159698 0.823655 0.83903706 0.93226707 0.8430811 0.8970507 0.8872245
0.910364 0.7348148 1.0510665 0.8972181 0.9298479 0.84486574 0.9881576 0.8817935
0.89597356 0.9547476 0.9757498 0.9326132 0.6928057 0.9468793 1.0375409 1.0397652
0.93894255 0.9066997 0.9447137 0.8883953 0.9052029 0.9358152 0.98177135 0.9643962
0.9336691 0.9516543 0.9380976 0.939143 0.90028125 1.0027515 0.9791735 0.88103735
0.95183235 0.9780971 0.9513763 0.9592706 0.9539482 1.0234925 0.9262508 0.9697577
1.0279244 0.9888092 0.99842197 0.97609854 0.9467555 0.8493484 0.92044497 0.91163653
0.9973997 1.0448812 1.0382496 0.9085156 0.95640475 1.011744 0.92770433 0.9056319
0.99427193 1.0133306 0.8236965 0.9112247 0.9392442 1.0653387 0.8373735 1.0045078
1.0627156 0.9432005 0.93597376 0.93523526 0.9320784 0.8966113 1.0265442 0.98870516
1.0301037 0.88941485 0.70923704 1.1089405 0.88978934 0.82321936 0.93135744 0.9894257
0.959122 0.96569854 0.82218117 0.8633324 0.9925296 0.97919405 1.0283473 0.8899276
0.96374005 0.8919051 0.8885968 0.9000854 0.76468235 1.0189229 0.79110104 0.9015531
0.9714653 0.82118523 0.9523841 1.0185777 0.9210584 0.9974464 0.91812676 0.87674725
0.92323726 0.9272443 0.96365595 0.9068629 0.8930808 0.9023219 0.86272824 0.8167736
0.65476507 0.96521455 0.81202006 0.9757898 1.0543181 0.79756576 1.0091963 0.8578038
0.9644371 0.91169643 0.97686327 0.92658347 0.9202968 0.8514007 0.84966576 0.90576565
0.91762805 0.9676651 0.92295337 0.8748457 1.044237 0.9983441 0.9475503 0.9237352
0.9826462 0.85751355 0.9811943 0.9695664 0.9458113 0.89742607 0.925434 0.97244614
0.80890334 0.9374133 0.9484921 0.85258955 0.93586534 0.92213196 0.9462914 0.92710024
0.9302838 0.9422893 0.942559 1.0017825 0.92257863 0.7894731 0.68413574 0.90628356
0.93773633 0.82984227 1.0052106 0.84376967 0.9237839 0.8226819 1.0139029 0.88941514
0.9485654 0.94327044 0.9728991 0.8588074 0.9275633 0.92734486 0.98700035 0.93209463
0.8734085 1.0464108 0.9142002 0.9516193 0.9226486 0.8971619 0.9028808 1.001792
0.92732954 0.91705006 0.9226453 0.8436662 1.0377624 0.8157496 0.6446656 0.9611516
0.9249103 0.9366812 0.76577836 0.9314778 0.97168374 0.8529068 0.93782985 0.9916661

layer1.1.bias f4 [256]
00000000: 187b 47be e9d7 70be 04f4 0fbe 31a7 13be
00000010: 8e3e 70be 717c 80be c5f9 8cbe 64f5 9bbe
00000020: 74d7 69be 22e6 bcbd d14d fabd 1b22 47be
00000030: e099 8abe 387f 5bbe b3f7 22be baee 6abe
00000040: 1e3d a5be fab2 79be 33b8 fdbc ae83 42be
00000050: 7278 06be 7ccd b9be 7c20 5fbe e32f ccbb
00000060: 8256 37be 43a9 1cbe 852d 22be 76b2 26be
00000070: e0d0 13be 0ecf cebd c614 11be 8dca 6cbe
00000080: e3b8 f7bd 39c5 cabd 7cd5 55be 7704 0cbf
00000090: 203c 8fbd 63d9 16be 6814 89be 1296 25be
000000a0: 5630 bcbd 9e2b a5be 3018 13be 000b 05be
000000b0: ea8c 2cbe 120c 49be 5a7e 3dbe 0eb1 25be
000000c0: 82a1 6dbd f2e0 2abe b486 6cbe 59bb 30be
000000d0: 456a 6fbe b39b 3fbe 28ce 11be 8205 5cbe
000000e0: 5f39 16be 8c9b 56be 7154 92bd 1771 41be
000000f0: 9451 83be 2c4d 4ebd f657 dabd 625d 0abe
00000100: 34ed 11be 61ad 00be 3f6e 67be f187 2dbd
00000110: 3c73 2ebe 6711 edbd 3f6a 9ebd 48c4 50be
00000120: d635 43be d950 5cbe 1b4f 76be b4eb 9abe
00000130: 78f0 6bbe 643e 42be 3556 f8bd 18d0 ecbd
00000140: 0603 33be 2021 a8bd d636 11be 3564 1cbe
00000150: d394 f0be efa7 34be ce4b 4cbe 9c70 93be
00000160: 5999 71bd 4706 fcbd b58c 48be 51cc 61be
00000170: 874c 30be e027 44be 5ae4 27be a3a0 20be
00000180: fcb6 21be 24aa 31be 5bbb 1bbe a4a2 2bbe
00000190: 9f0e 20be 4a30 55be 0ec5 19be 7d76 8ebe
000001a0: e40b 9dbe ceee a7bd 0e67 f8bd 18a2 78be
000001b0: 1206 28be c3e7 69be d53f 58be eba8 39be
000001c0: ebfc 2dbe 7c13 abbd 56fe 74be 6e19 73be
000001d0: a279 2cbe 6a08 1dbe 995d 9bbc a75f 08be
000001e0: 33a9 27be d428 50be 26d9 25be 16fa 05be
000001f0: e3dd 42be 7454 e0bd 4350 43be 13ef 0cbe
00000200: 729e 6fbe 48f7 91be 1cc5 13be 9b5d f1bd
00000210: d35d 0fbe 0f77 93be de42 7abe 7844 76be
00000220: 47dc cdbd 76b5 01be 19a5 3abe 744e a6be
00000230: 15a6 4dbe dee7 86be e109 29bd f3d9 54be
00000240: ebea 6bbe 552a 32be 9254 1ebe 42db 80be
00000250: c698 55be 0f8c b8bd 676b a5be e5d4 3fbe
00000260: 67bf 42be d46e 443d 0936 77be 1b9f 1fbe
00000270: bc3e 3dbe 1f94 94be 2b97 63be 5ec4 1bbe
00000280: f6ad dcbd ab30 89bd 2e10 58be 0506 31be
00000290: 600b 45be 8451 d4bd 160a 8abe 62cc 6fbe
000002a0: 6f0b 82be 503d 33be 1cf1 11be 11da 17be
000002b0: fc8c 5abe b207 a7be 0577 87be 0f4a 53be
000002c0: 80d3 12bd 4997 a3bd d50c e6bd 475f ecbd
000002d0: 5bb5 2ebe 4f51 c4be 7f9f 7fbe 8646 4ebe
000002e0: e3c3 8abe 72db 4ebe 21cc 0abe 9b91 4ebe
000002f0: dfec 32be a023 11be c9c5 22be b7ba 3ebe
00000300: f929 5bbe a72a 45be 6145 72bd 2e3c 4fbe
00000310: 1bdb 75be 777d 4dbe 5eac 81be 509e 18be
00000320: ec09 b9bd 6605 1cbe 40b0 f4bd 2460 9dbe
00000330: 4aa9 ccbd 6fd2 b8bd 6923 29be 1e70 8ebe
00000340: 1a97 55be d765 8cbe 4726 2cbe 9020 0abe
00000350: b3e4 29be 54f7 47be 0025 d9bd e899 48be
00000360: 35a5 74be b991 3cbe af2d d8bd 1704 25be
00000370: f157 dcbd 22b2 1abe abcc 2bbe 2ac9 6cbe
00000380: 6553 03be c155 8dbe b6f6 52be c542 75be
00000390: f90d 4ebe 2f79 13be 4a83 29be e965 99be
000003a0: 62d4 0bbe 4f96 4abe 6a1e 03be 302d d6bd
000003b0: 3884 48be aff8 49be f9a4 61be e41b 6dbe
000003c0: a6ae 1abe 71ed 81be 39c6 02be 3706 fabd
000003d0: a303 5cbe 057f 50be 4487 3abe a329 29be
000003e0: 417a aabe b469 82be 8a8c 23be 9308 22be
000003f0: 8e55 91bd 0b3b acbe c1f3 42bd 7fa4 03be
-0.1948055 -0.23519863 -0.14057928 -0.14419247 -0.23461363 -0.2509494 -0.2753431 -0.30460656
-0.22836095 -0.09223582 -0.122218736 -0.19446604 -0.27070522 -0.21435249 -0.15914802 -0.2294263
-0.3227319 -0.2438468 -0.030971622 -0.18995544 -0.13131884 -0.36289585 -0.21789736 -0.0062312945
-0.17904094 -0.15298943 -0.15837677 -0.16279015 -0.14435148 -0.10098086 -0.1416808 -0.23124142
-0.12095811 -0.099008985 -0.20882219 -0.5469431 -0.0699389 -0.14731364 -0.2677338 -0.16170529
-0.09188907 -0.3225984 -0.14364696 -0.12992477 -0.1685063 -0.1963351 -0.1850523 -0.16180822
-0.058015354 -0.16687372 -0.2309826 -0.17258967 -0.23380382 -0.18711738 -0.14238799 -0.21486476
-0.14670323 -0.20957774 -0.07145012 -0.18890797 -0.25648177 -0.050366566 -0.106613085 -0.13512185
-0.14250642 -0.12566139 -0.2260065 -0.042365972 -0.17036146 -0.11575585 -0.077351086 -0.20387375
-0.19063506 -0.21515216 -0.24053614 -0.30257952 -0.2304095 -0.18969113 -0.12125818 -0.11563128
-0.17481622 -0.08209443 -0.14181075 -0.15272601 -0.46988544 -0.17642187 -0.19950792 -0.28796852
-0.058984134 -0.12305885 -0.19584925 -0.22050597 -0.17216693 -0.19155836 -0.16395703 -0.15686278
-0.15792459 -0.1735006 -0.15208189 -0.16761261 -0.15630578 -0.20819202 -0.15016577 -0.27824774
-0.30673134 -0.08199845 -0.12129031 -0.24280584 -0.16408566 -0.22842316 -0.211181 -0.18130843
-0.16991012 -0.08353326 -0.23925146 -0.2374017 -0.16843274 -0.15335241 -0.01896553 -0.13317738
-0.16373138 -0.20328075 -0.16196117 -0.13083681 -0.19029956 -0.10953608 -0.19073586 -0.13763075
-0.23400286 -0.28508973 -0.1443066 -0.11785432 -0.14000635 -0.28801772 -0.2443957 -0.24049556
-0.1005178 -0.12666878 -0.18227042 -0.3248173 -0.20082887 -0.26348776 -0.041269187 -0.20786266
-0.23038833 -0.17398961 -0.15461949 -0.2516728 -0.2085906 -0.09011089 -0.32308504 -0.18733557
-0.19018327 0.047957256 -0.24141707 -0.15588038 -0.18480963 -0.29019257 -0.22225635 -0.15211627
-0.10775368 -0.06698736 -0.21099922 -0.17287453 -0.1924262 -0.1036711 -0.2696082 -0.2341781
-0.25399348 -0.17503858 -0.14252132 -0.1482928 -0.21342844 -0.3262306 -0.26457992 -0.2063372
-0.035846233 -0.0798784 -0.11232916 -0.1154161 -0.17061369 -0.38343284 -0.24963187 -0.2014409
-0.27102575 -0.20200899 -0.13554431 -0.20172732 -0.17473172 -0.14173746 -0.15895762 -0.18625914
-0.2140273 -0.19254552 -0.059148196 -0.202378 -0.24009363 -0.20067392 -0.25326818 -0.14904141
-0.090350956 -0.15236434 -0.119476795 -0.30737412 -0.09993227 -0.09024512 -0.16517414 -0.27819914
-0.20858422 -0.27421448 -0.16811477 -0.13488984 -0.16591148 -0.19527942 -0.1060276 -0.1958996
-0.23891146 -0.18414964 -0.105555885 -0.16114841 -0.10758961 -0.15107015 -0.16777293 -0.23123613
-0.12824781 -0.27604488 -0.20601925 -0.23951252 -0.20122518 -0.14401697 -0.16553989 -0.29960564
-0.13655236 -0.197839 -0.12804571 -0.104578376 -0.19581687 -0.19723772 -0.22035588 -0.2315517
-0.15105686 -0.25376466 -0.12770928 -0.12208217 -0.21485762 -0.20360954 -0.18215662 -0.1651979
-0.33296397 -0.2547127 -0.1597158 -0.15823583 -0.070963964 -0.33638796 -0.047595743 -0.12855719

layer1.1.running_mean f4 [256]
00000000: fedf b9bf ac61 3abf 9bd1 c63f 3c34 3fbf
00000010: 46ca 34be 2d17 a23f 31bc d5be 6c9e 5dbe
00000020: 0b40 cabf 0ffc 2cc0 a98d d0bd e625 a1be
00000030: d891 433e 5b69 17bf 949e 7c3e 3512 b9bf
00000040: 549e c53e 8e49 c6bf c464 32bf c316 0b3f
00000050: b060 4abf 9027 793f ff10 4540 8235 4c3f
00000060: 6c0b 8b3f c50e a5be 1c8b 97bf df67 24bf
00000070: 1780 fdbf eddc 5bbf 782b 1d40 8d51 cabf
00000080: 4ea2 d5bf 5171 8cbf 3f10 7fbf 381b a1bf
00000090: 6479 35bf 5a7a e0bf 2393 7ebd 4fc9 48bf
000000a0: e1d7 d73e 729f 94bc 6321 dc3f e712 9e3f
000000b0: c074 f43f 3ce4 d1bd 7404 0ec0 67e9 42c0
000000c0: 85af 923f 4413 0cc0 36e6 bb3e 7e5b ae3e
000000d0: 9eb8 7c3e 9339 723f a4db a0bf 8e18 9abd
000000e0: 198b 60be 89bd 8cbf 1a3e 51bf 04e8 6540
000000f0: d8bb 00c0 762c 87be d8e3 fbbf 449f 3f3e
00000100: 21e7 373e 1cb1 213f 57e4 b5bf 468d 653f
00000110: b1a3 6a3f 7645 b7bf 15e4 f9bf 3a5d f8be
00000120: 06ee 3abf 7d79 23bf 0d84 813e 75af d5bf
00000130: 3ec3 81bf ec15 9cbf 6133 1f3f 8ebf efbf
00000140: 7a82 31c0 2002 a93e 9de4 2dbf 2b86 acbf
00000150: 6924 743f 65ac 5cbf 6632 cc3f 394f 8ebf
00000160: 6d34 b5bf c8d9 f0bf 7534 cfbd 6f8d 3fbf
00000170: 4fcb 8bbf 632e 09c0 bc76 1b3f 7d87 3abf
00000180: 60df 29bf a542 87bc 25cf 2d3c aecd 41bf
00000190: adc4 8abf 3e6a c93d bdf1 52c0 88cd 81be
000001a0: 851f 6abe 82a5 1b3f 70e2 a2bf bc12 f7bf
000001b0: 4e1b 5bbf 3bbc 2a3e b91d f83d 84ff bb3f
000001c0: 1786 35bf 28f0 99bf cd7a 9fbf f3df 6abe
000001d0: 4438 ad3e 9742 cb3d 5c66 3640 798f 6dbe
000001e0: f6f5 eb3e c759 ccbf d70c 0dc0 fc8c 64bf
000001f0: 2eb5 8b3e 9b02 13be 22d4 60c0 2bf5 44bd
00000200: 226e a33e 998d 44bf 737d dabf 4423 efbf
00000210: 392a 9d3e e69c 543f 898b ab3e 17ab 0fbf
00000220: 0182 06c0 7585 9bbe 35a3 28c0 76e9 44bf
00000230: 940e 983e ba72 f13c 6832 2b3f afe8 9e3e
00000240: facf 97bf fb7c 18c0 cccb 9f3e 681f 29be
00000250: f897 12c0 359f 3d3d 6847 873f d960 9cbd
00000260: 9a1c 9fbf ca65 afbe c52f bbbe 3025 173f
00000270: b4dd 273f da2b d2bf 8898 adbe e45a 8a3f
00000280: 4138 92bf 1d83 863f 77f1 383f 2941 c1bf
00000290: 5c5f 28bf df32 9b3e 8d9c 9abf cc8c d93f
000002a0: 1529 a03e bcee de3e 706a ebbf 7a9e 23c0
000002b0: 0a20 053d 0f15 d6be 1a96 3ec0 41e8 dbbf
000002c0: 96cd 9ebf e233 8e3e cb3d e6be d5d1 a1be
000002d0: e7d9 3040 a939 5dbf d5b1 023f 21b3 a9bf
000002e0: 9b52 c0bb d07b b6bf 4060 babf c91c dcbe
000002f0: c133 893f 12ae 11bf 69e8 98be 0206 85bf
00000300: 3803 513f d8b6 353f 00c6 023e 6ca5 0ec0
00000310: 83ef f2bf b27d 463d 4fab acbf 2e11 2fc0
00000320: c820 52be 9bb7 97bf 7a9d e7be b505 d93e
00000330: ec8c 783f b237 48bf 5f4e c63f e1f9 c0bf
00000340: 1131 113e 8c94 9dbf e649 7ebd 91ed e03e
00000350: edd2 34bf b8fe 7c3f ef0d 80be 39c8 4b3f
00000360: c7f5 dfbe ac83 d2bf ffca 16bf 6fea e2be
00000370: 06f5 ab3e e69a b4bf 43c2 543e c649 503f
00000380: b867 5e3e c50b bebf 60de eb3f bdbb 42bf
00000390: 2ab6 643e 7e0a c5bf 986f 86bf 31ce f3bf
000003a0: cf52 c93f 69da a3bf 18e1 8ebf cbe9 c5bf
000003b0: 7d44 14c0 1f86 7cbf c5a8 833d 89c4 96bd
000003c0: 8fe2 5b3e 3f05 d0bf ec04 d7bf f35d 95be
000003d0: 37a4 86bf cc31 8e3f 44bb f7bf ed29 a53f
000003e0: e4bf 2dc0 53fe e4bf 459c 0dbe de78 abbe
000003f0: 5d3c bcbe 854a c0be 77e7 41c0 5def 7a3f
-1.4521482 -0.72805285 1.5532717 -0.7468908 -0.17655286 1.2663323 -0.4174514 -0.21642464
-1.5800794 -2.7028844 -0.101832695 -0.31474227 0.19098604 -0.59145135 0.24669868 -1.4458681
0.38597357 -1.5491197 -0.69685006 0.54331607 -0.79053783 0.9732599 3.0791624 0.79769146
1.0862861 -0.3223783 -1.1839328 -0.64220995 -1.9804715 -0.8588398 2.4557781 -1.5806137
-1.6690156 -1.0972081 -0.99634165 -1.2586432 -0.7088835 -1.7537339 -0.06215204 -0.7843217
0.4215689 -0.018142436 1.7197689 1.2349519 1.9098129 -0.102486104 -2.2190218 -3.0454957
1.1459814 -2.1886759 0.36699075 0.34054178 0.24679801 0.946191 -1.2567029 -0.07524215
-0.21928062 -1.0995342 -0.81735384 3.592286 -2.011465 -0.26401109 -1.9678907 0.18713099
0.17959262 0.6316087 -1.4210309 0.8966869 0.91656023 -1.4318073 -1.952273 -0.48508626
-0.73019445 -0.6385725 0.2529606 -1.669417 -1.0137708 -1.219419 0.62187773 -1.8730333
-2.7735887 0.33009434 -0.6792696 -1.3478445 0.9536806 -0.86200553 1.595288 -1.1117927
-1.4156624 -1.8816462 -0.10117427 -0.74825186 -1.092142 -2.1434562 0.6072805 -0.7286299
-0.6635647 -0.01651127 0.010608469 -0.7570447 -1.0841271 0.09834717 -3.2960045 -0.2535212
-0.22863586 0.6079942 -1.2725353 -1.9302592 -0.8558854 0.16673367 0.12115044 1.4687352
-0.7090773 -1.2026415 -1.2459351 -0.22936992 0.3383199 0.099248104 2.8499975 -0.23199262
0.4608609 -1.5964898 -2.2039087 -0.89277625 0.27286667 -0.14356463 -3.5129476 -0.048085373
0.31919962 -0.7677856 -1.7069534 -1.8682637 0.30696276 0.8305191 0.33504894 -0.5612044
-2.1016848 -0.30375257 -2.6349614 -0.76918733 0.29698622 0.029473651 0.6687379 0.31036898
-1.1860344 -2.3826282 0.31210172 -0.16515887 -2.2905254 0.04629441 1.0568666 -0.0763566
-1.2430604 -0.34257346 -0.36559883 0.5904112 0.6557267 -1.6419632 -0.33905435 1.0808988
-1.1423417 1.0508763 0.72243446 -1.509801 -0.65770507 0.3031225 -1.2079026 1.6996093
0.31281343 0.43541515 -1.8391857 -2.5565476 0.032501258 -0.4181294 -2.9779115 -1.7180253
-1.240649 0.27773958 -0.4496902 -0.31605402 2.7632997 -0.8641611 0.510526 -1.3257791
-0.0058692223 -1.4256535 -1.4560623 -0.4299071 1.0718919 -0.56906235 -0.29864815 -1.0392458
0.81645536 0.7098212 0.12770844 -2.2288465 -1.8979343 0.048459716 -1.3489779 -2.7354236
-0.20520318 -1.1852907 -0.45237333 0.42387167 0.9709003 -0.78209984 1.5492667 -1.5076257
0.14178874 -1.2310958 -0.062082194 0.4393125 -0.7063435 0.9882617 -0.2501063 0.7960239
-0.437422 -1.6446433 -0.589035 -0.44319484 0.33585376 -1.4109771 0.2077723 0.8136257
0.21719253 -1.4847342 1.8427238 -0.76067716 0.22335115 -1.5393827 -1.0502806 -1.90473
1.5728396 -1.2801028 -1.1162443 -1.5461973 -2.3166802 -0.9864215 0.064286746 -0.07361705
0.21473144 -1.6251601 -1.6798377 -0.2917324 -1.0518864 1.1108947 -1.9354024 1.290342
-2.714837 -1.7890114 -0.13829143 -0.33490652 -0.36764804 -0.37556854 -3.0297525 0.9802149

layer1.1.running_var f4 [256]
00000000: 1498 4041 d5b7 1c41 5a8d 3741 ae26 d340
00000010: 607b d440 135a da40 a24f 2d41 324c 1a41
00000020: cbed 6741 523d 0141 57a1 0841 ab6e 2d41
00000030: 43df 1741 93be ad40 7be7 7841 d93c 3141
00000040: 0589 1441 a3bd bc40 bed6 8b41 0609 3341
00000050: 2eff fa40 fbea 1b41 39e9 e940 f26c ac40
00000060: 9050 3841 7b45 0c41 5d83 2641 09b7 ad40
00000070: ea7e e940 6414 8540 b0f2 eb40 7509 2d41
00000080: 1de0 1041 f97d 0141 80e5 c040 a9e6 0b41
00000090: bd2c b840 e691 8141 18e2 4141 b5ef 1d41
000000a0: 5be3 3c40 6743 a241 d584 2941 bee7 a840
000000b0: 1fde f040 86d0 0541 6f62 2a41 117a 5441
000000c0: 8906 1a41 7bd7 c340 fe9d d840 80a1 0841
000000d0: 97ed 3241 16d8 4c41 aefa a241 db85 5741
000000e0: d274 1841 f63e 5f41 168e 5a41 9b2c 3b41
000000f0: d428 3b41 c3c7 3e41 6714 cb40 f01b f040
00000100: 45d9 e240 21ad 3a41 89d8 7641 3c44 4a41
00000110: 252e 1e41 7380 8741 6434 4841 4f57 ed40
00000120: 517b 6341 1fc0 c740 cead 1041 5ddd 7841
00000130: 7de0 4141 4f39 2d41 9b7b 0841 ffe8 2841
00000140: b96e 1f41 b0da 2541 d2a7 3441 204a 7a41
00000150: aa4c d640 d294 1341 80d4 ed40 96ce b140
00000160: 1017 5441 6bd0 f340 43d6 c140 fc56 9640
00000170: 859c fb40 5c0e 2341 250b 9a41 b045 1f41
00000180: ca5d f440 f3fd dd40 61cb 2b41 335f f440
00000190: f2f1 5041 7df3 3541 b1c8 5c41 208f 4041
000001a0: d95a 5a41 8fc6 1941 e802 2941 b31b 0f41
000001b0: ae03 0a41 09bf 0341 1a55 2a41 dfdb 1141
000001c0: 0289 5141 5c31 7b41 2827 8c41 56eb 3841
000001d0: 7828 e140 2863 0c41 6982 7d41 f757 6b41
000001e0: 27b2 e340 f642 2641 f5ef 1141 8dd2 3041
000001f0: 5a54 1741 7edd 2d41 d364 d540 653e 4041
00000200: 6659 c440 87b5 3c41 866f 5b41 d8a0 7841
00000210: 965a 9d40 7526 0141 d9b6 5241 a0b8 eb40
00000220: 1731 5441 f6b0 ed40 edbf 5041 fce5 ca40
00000230: 5115 df40 2687 2241 4f98 0f41 db35 0c41
00000240: e1bc 3b41 3fe7 8741 c7cc 1141 6b9b 2541
00000250: f48c a341 60c2 af40 0952 4b41 4d36 1041
00000260: 6841 fc40 b3fc 2741 84d1 2041 6a51 bd40
00000270: 6744 e140 6f61 3641 1dbe bb40 d693 db40
00000280: 33f6 4141 7903 6f41 f07b 2d41 2cca 0741
00000290: 0d1b 0241 f7e3 5341 ff2e 5541 6c4b 7c41
000002a0: 9992 2841 36f7 4341 eaac 7341 c034 d940
000002b0: 7af4 c440 c81a 3141 36af 1441 ea65 2841
000002c0: 1ca7 4d41 60d3 0e41 17a2 d540 147d 3441
000002d0: 3804 5441 cb08 4641 8e71 4141 682c 1d41
000002e0: bcdf 1b41 168a 1d41 4ea8 be40 3d65 1a41
000002f0: 0e4c 0241 66be 5e41 708e d340 8fde 0b41
00000300: 9944 cc40 9f4b 5041 df4a dc40 ac03 3b41
00000310: 0a6f 1e41 ef66 2341 289e 3141 346b 0241
00000320: 579d 4341 ab53 3941 72b0 3d41 ee11 1b41
00000330: fa22 f940 5fb6 2841 7c54 7240 6b4b 4e41
00000340: 4459 0d41 12c6 2641 934a 5441 31c9 7540
00000350: bedb 0641 6afb 7641 871b 6541 f55f f540
00000360: fff4 4841 45b9 5741 15c2 5d41 63dc 5041
00000370: 9fec 7641 ca3a 2441 c98f 8a40 ac9a 0941
00000380: 3c5c 2841 7fdd 4a41 4cb4 6741 aada 6b41
00000390: 852c 5541 e02c 0641 9c5e 1141 dc96 2041
000003a0: 2224 3c41 b1bb 9740 7ed2 5041 af0d 0941
000003b0: 1209 1a41 5cc5 2d41 3ad4 2541 c9d3 1e41
000003c0: fd26 c040 295c c140 c3bc 2e41 f25b 0341
000003d0: 8ff8 9540 dd7c de40 a265 3c41 8eff 1441
000003e0: d374 4041 705f 2241 d58d 6341 280d 0041
000003f0: ba8d dd40 eab6 8241 3d44 4041 badb fd40
12.037128 9.794881 11.47201 6.5984716 6.6400604 6.8234954 10.831942 9.643602
14.495555 8.077471 8.53939 10.839519 9.492007 5.4295135 15.556514 11.077355
9.283452 5.898149 17.479855 11.189703 7.84365 9.744868 7.3097196 5.388299
11.519669 8.766963 10.407071 5.428593 7.2967424 4.158739 7.373375 10.814809
9.054715 8.093255 6.028015 8.7438135 5.755461 16.19624 12.117699 9.871022
2.9513767 20.282911 10.59493 5.278289 7.5271144 8.363409 10.649032 13.279801
9.6265955 6.120054 6.769286 8.539429 11.183005 12.802755 20.372402 13.47018
9.528521 13.952871 13.659689 11.69839 11.697468 11.92377 6.3462405 7.5034103
7.089022 11.667268 15.427865 12.641659 9.886266 16.93772 12.512791 7.416908
14.217607 6.2422023 9.042433 15.554044 12.117307 10.826491 8.530177 10.556884
9.964532 10.3658905 11.290972 15.643097 6.6968584 9.223833 7.43219 5.556468
13.2556305 7.6191916 6.057405 4.698118 7.8628564 10.191006 19.255442 9.954514
7.636449 6.9372497 10.737153 7.636621 13.059069 11.371945 13.798997 12.034943
13.64718 9.610976 10.56321 8.9442625 8.625898 8.234139 10.645777 9.116179
13.095949 15.699551 17.51912 11.557455 7.03619 8.774208 15.844338 14.708976
7.115497 10.391348 9.121083 11.051404 9.458094 10.866575 6.6685576 12.015233
6.135913 11.794318 13.714727 15.5392685 4.917308 8.071889 13.169641 7.366287
13.261985 7.4278517 13.046857 6.3405743 6.971352 10.157995 8.974685 8.763148
11.733613 16.987913 9.112494 10.350444 20.443825 5.4924774 12.707528 9.013257
7.882984 10.499194 10.051151 5.9161882 7.0396 11.3987875 5.866957 6.8617964
12.122607 14.938348 10.842758 8.486858 8.131604 13.2431555 13.323974 15.768414
10.53579 12.247854 15.229715 6.787689 6.1548433 11.069038 9.292776 10.524881
12.853298 8.926605 6.6760364 11.280537 13.25103 12.377147 12.090223 9.823341
9.742123 9.846212 5.958045 9.649716 8.143568 13.921484 6.6111374 8.741836
6.3833737 13.018462 6.8841395 11.688396 9.902109 10.21263 11.101112 8.151173
12.225913 11.582927 11.855577 9.691877 7.7855196 10.544524 3.7864065 12.893413
8.834293 10.423357 13.268207 3.8404047 8.428648 15.43638 14.319221 7.6679635
12.5598135 13.482732 13.859883 13.053805 15.432769 10.264353 4.330052 8.600262
10.522518 12.679076 14.481518 14.740885 13.323369 8.385956 9.085598 10.036831
11.7588215 4.7416615 13.05139 8.565841 9.627214 10.860683 10.364313 9.926705
6.0047593 6.0425 10.921084 8.209948 4.6865916 6.952742 11.774813 9.312391
12.028522 10.1483 14.222127 8.003212 6.9235506 16.339314 12.01666 7.933072

layer2.0.weight f4 [128, 256]
00000000: 0848 f83b bba3 1a3e 90e5 98bd d143 acbd
00000010: 5205 f73d 18f8 3c3c f1e0 91bd 4257 f43d
00000020: ab45 3abd d7cc 993d d492 c5bd 8acb 403c
00000030: ec2c 983d ea77 c2bc 6940 08be eef5 efbd
00000040: 0147 0ebd a9b5 6fbd 5ecc 833c c78a 433d
00000050: 96b6 a93c 225a 543d 7040 063d de16 16bd
00000060: a186 813d cc5b 153e f027 47bd dff1 543d
00000070: 8562 bf3d fe97 59bd 3516 adbd a82c dabd
00000080: cc27 82bc 2a66 753d 2cc8 7cbd c0a3 c9bd
00000090: 3568 dfbd fa9c 7d3b c249 cf3d dab6 c83c
000000a0: 640a d73d 176a 75bd 3374 bbbd 8335 dc3c
000000b0: 8ec0 ecbd 1b0f d23a 6ae7 243d 33d6 c13d
000000c0: 592a 203e 4e72 cf3d fbfe 8f3c 1fe4 9c3d
000000d0: 56e3 e1bc c386 713c 813d 69bd 4bdf 24be
000000e0: 6c1c b6bd 4321 24be 2940 edbd ce22 033d
000000f0: 674f db3d 7fe4 67bd bdc7 1cbe 5d54 e33c
00000100: aa16 883d ca29 bbbd 18e1 933c 8550 483d
00000110: 89d6 933d 4ad3 a43d b2c9 d43d 8172 97bd
00000120: 214f 2d3c 5c6f a23d af82 9a3c c753 e43c
00000130: 546c 773c fdd0 2f3d cd08 27bd 2d3b 433d
00000140: 2b07 cb3c fed9 d0bd b37f 613c 1d90 b3bd
00000150: f77f 27bd 2281 5cbd 0a36 0ebe 093d 02bc
00000160: 9eb7 d43d dcc2 d5bd d674 d6bc 1fdb e1bd
00000170: 540e 9d3d 8b45 51bd 7a7c 7fbc 5cf7 3a3c
00000180: 469e 0abe a23e dfbd d0e1 a9bd 4bd5 0b3e
00000190: 4291 333d 140c 31bd 80e1 cabc a068 213d
000001a0: f9c4 de3d d860 bfbd 8ad6 c1bd 6fa7 77bd
000001b0: 2dbb 93bc dec0 f0bd 0c7e 103c 8e87 d23c
000001c0: a0ae 7bbd 3144 2abd 2bb5 e23d 28e3 3fbb
000001d0: 4603 a3ba bfea e5bd 3df1 58bb a6ac 25bd
000001e0: 4975 a6bd 6aa2 d8bd b2c6 59bc 1702 033a
000001f0: c179 3f3d 26eb d83c 0bcf ebbd ee34 28be
00000200: 14cc eb3c c86f f33b 7c7c 953d 3802 3e3c
00000210: 3447 35bd cd33 3bbc 11c5 9b3d 3e8c 7bbd
00000220: 5c88 f8bd 14d2 c83d 25c4 223e 176f 0e3d
00000230: 9fe2 fe3d 0039 debd 85e0 1dbe 7c01 35bd
00000240: 8a41 933d afba 253d e55f 27bd 63b5 0e3d
00000250: aff0 4e3d 93c9 4cbe 7d1d fdbc f25a 37bd
00000260: 0836 52bd 492a bc3d 34cd adbd b1af 7d3d
00000270: 42e0 6abd e780 efbd 957d d73d 059b 623b
00000280: 65b2 2dbd 823a 1bbe a6c2 883d 61bc 873d
00000290: dbce 853b d146 2cbd d57b 2c3c 48b9 94bc
000002a0: 907b 8f3d 8eaf 0abd 1747 a4bd ba6c a8bd
000002b0: c50c fabd d4e3 993d f1e4 f2bd 137d 8cbc
000002c0: 3b4a 88bc 3287 693d 6694 8a3c 1c68 243d
000002d0: eea1 a5bd 8b2d c33d 0950 c0bd db5f 1d3c
000002e0: 5cd1 3c3d 3d45 dc3b 97f2 05bd e74c a3bd
000002f0: bdba 82bd 5a62 a0bc 5be8 523d f727 93bd
00000300: f18a cfbd 0989 7b3c c74e c2bb 1f82 273d
00000310: aa8b 543d 3964 073d 5fa9 803d a2fc 00be
00000320: 184b a7bc 8495 8a3d 69c2 823c 5ff7 373e
00000330: 6573 043d 9eab 02be 95ab 30bd 265f 053e
00000340: b3e5 713d 99e9 163e 2483 b5bc 8b52 47bd
00000350: 1c13 093e f1ee 1dbd 6f9a 05bc db75 c6bd
00000360: 91e2 9abd 1002 7f3d 47e9 5dbc 5888 6dbd
00000370: 2f3c 36bd 1a72 893d c71a 563c 13c9 f3bc
00000380: 05d1 3abe a593 b2bd 55f1 cabd 4ace c7bb
00000390: 7d26 083d 968f 963d 3828 65be 2c84 043e
000003a0: 7101 ad3d fc81 44bd 2fec b1bd 02f7 91bd
000003b0: f758 163e 4693 3f3d 5aca c1bc 67ae 193e
000003c0: 429a 98bd 4178 e7bb d280 18bd 54b0 0e3e
000003d0: 0ba8 243e a1fd 623d 4505 5fbd 8e39 843d
000003e0: 82af a5bc 10ef ffbd 914e 8fbc 10b6 3cbd
000003f0: f658 3e3e 72fa 9e3d 0a6b b23c 765b e2bd
0.007576946 0.1510152 -0.074656606 -0.084113725 0.12061562 0.01153376 -0.07122982 0.119307056
-0.045476597 0.07509773 -0.09647146 0.0117672775 0.07430443 -0.02373882 -0.1330582 -0.11716829
-0.034735683 -0.058522854 0.01608866 0.04773977 0.020716947 0.05184377 0.032776296 -0.0366429
0.063245066 0.14585799 -0.04862207 0.05198848 0.09344963 -0.053123467 -0.08451501 -0.10653049
-0.015888117 0.059911884 -0.061714336 -0.09845686 -0.10908548 0.0038698302 0.1012149 0.024501253
0.10500029 -0.05991563 -0.091530226 0.026880985 -0.115601644 0.001602623 0.040259756 0.094646834
0.15641154 0.10129224 0.017577639 0.07660698 -0.027574223 0.014741602 -0.05694342 -0.16100805
-0.0889214 -0.16028313 -0.11584503 0.032015614 0.10708504 -0.056614395 -0.15310569 0.027750188
0.06644948 -0.0913883 0.018051669 0.048904914 0.07218654 0.08048113 0.10390033 -0.07394887
0.010577948 0.07931396 0.018861143 0.02787198 0.015101511 0.042923916 -0.040779877 0.047663856
0.024783691 -0.10197829 0.013763356 -0.08767722 -0.04089352 -0.05383409 -0.13887802 -0.007949122
0.10386585 -0.10437557 -0.026178759 -0.11028122 0.076687485 -0.051091712 -0.015593642 0.011411514
-0.13536939 -0.10900618 -0.082950234 0.13655584 0.0438397 -0.04322441 -0.02476573 0.03940642
0.10877413 -0.09344643 -0.09464748 -0.06046241 -0.018033588 -0.117555365 0.008819114 0.025699403
-0.061445832 -0.04156894 0.11069711 -0.0029279683 -0.0012436889 -0.11226415 -0.0033102774 -0.040447854
-0.08127839 -0.10577853 -0.013292002 0.0004997565 0.046746973 0.026479315 -0.115141 -0.16426441
0.028783835 0.007429097 0.07299134 0.011597209 -0.044257358 -0.0114259245 0.07605947 -0.061413042
-0.121353835 0.09805694 0.15895136 0.034773912 0.12445568 -0.10850716 -0.15417679 -0.04419087
0.07190235 0.04046124 -0.040862937 0.034840953 0.050522503 -0.1999877 -0.03089785 -0.044764467
-0.05132106 0.09187753 -0.08486405 0.06193513 -0.057342775 -0.11694508 0.10522 0.0034577262
-0.04240646 -0.15159038 0.06677751 0.06627727 0.004083497 -0.042059723 0.010527571 -0.018154755
0.070059896 -0.03385883 -0.08021372 -0.08223863 -0.12209467 0.07514158 -0.11860073 -0.017149484
-0.016636958 0.057013698 0.016916465 0.04013835 -0.08087526 0.09530171 -0.093902655 0.009605373
0.0460981 0.006722121 -0.032702055 -0.07973652 -0.06383274 -0.019578148 0.051491123 -0.07185357
-0.10133923 0.015352496 -0.005929801 0.040895578 0.051891007 0.033054564 0.06282305 -0.12596372
-0.02042155 0.06766799 0.015961843 0.17965458 0.03233661 -0.1276078 -0.043132383 0.13024577
0.05905695 0.14737548 -0.02215726 -0.048662703 0.13386196 -0.03855795 -0.008154496 -0.09690448
-0.07562745 0.062257826 -0.013544387 -0.057991356 -0.04449099 0.06711216 0.013067908 -0.029758966
-0.18243797 -0.08719567 -0.09909312 -0.0060975896 0.03323983 0.073516056 -0.22378623 0.12941045
0.084475406 -0.047975525 -0.086876266 -0.07127191 0.14682375 0.04677131 -0.023656059 0.15007935
-0.07451297 -0.007063896 -0.037232228 0.13934451 0.16079728 0.05541766 -0.054448385 0.0645629
-0.02022529 -0.124967694 -0.017493518 -0.046072066 0.18588623 0.077626124 0.021779556 -0.11052601

layer2.0.bias f4 [128]
00000000: f7d5 2736 0fac b935 9e0a 3cb5 6419 4db7
00000010: 4da3 37b4 0ccf 5135 eb90 fdb6 12e2 1036
00000020: bf86 b1b5 f579 32b5 52e1 bfb6 6109 8536
00000030: f09e da35 16a3 c336 036d 0c37 0354 cf35
00000040: c2fb df35 f69e 6036 c649 4037 9937 3c36
00000050: ec21 17b7 a9a7 71b6 7876 7535 22b9 1736
00000060: b054 2836 ff5d 25b5 fa79 29b6 cd2c 4135
00000070: 019f 1b36 771b a935 85e0 e3b6 30e0 22b6
00000080: b503 4735 764a 79b6 03ad cc35 9f4e 0bb6
00000090: f2b6 aeb5 085b d834 21c7 9035 0907 8ab6
000000a0: 90b5 ddb5 f13b 9a36 d2c8 a8b6 5c91 0337
000000b0: ee6d ccb6 e978 2537 8367 28b6 ba11 6536
000000c0: eda0 2036 1742 aa34 bc5d b1b5 ff42 aeb6
000000d0: c1dd f235 e910 9fb5 2d85 b2b6 f6a0 1db7
000000e0: ee69 32b6 18af 0335 d52c 2034 6ca3 84b6
000000f0: 305e 1536 efe7 1b36 c9c5 efb6 2f14 4c36
00000100: d86d 2837 c4d0 6536 c3bf 06b7 7636 0ab7
00000110: c4be a336 2736 1737 0e13 abb6 d8c2 bfb6
00000120: 6298 a736 14b6 6536 0db9 5bb6 abbd 1e35
00000130: a672 f0b6 6e76 cc36 a97e d4b6 9d8e b5b6
00000140: dab9 c8b6 32d0 bbb6 21c0 88b6 a390 2e36
00000150: f010 1336 71dd 9f36 eb6b 1d36 8d61 89b5
00000160: ad03 cd35 2fe6 1b36 a70f 62b5 ca09 8134
00000170: e192 9eb6 95d2 c6b6 9ae3 6037 f7a3 0737
00000180: dd6c e736 045f 88b6 5178 3ab5 27c7 8836
00000190: 7051 6c36 de2f 5db4 8e8b e335 be9b 1b36
000001a0: bf3e 83b6 e4bb b235 7a5d ad36 7ea8 b736
000001b0: 4af3 8136 d46c 1b36 6a01 a1b6 f002 fcb4
000001c0: 746c 2837 eade 54b6 213d dfb6 3221 c234
000001d0: a4fc 4e35 a1c0 1fb6 0ec7 5b34 7b80 2836
000001e0: 5857 5536 1467 a4b6 ecc4 3f37 041e 6535
000001f0: 9f37 4c36 9c96 6a35 a40d 0837 b193 45b6
2.5009483e-06 1.383365e-06 -7.005091e-07 -1.2224864e-05 -1.7102612e-07 7.815986e-07 -7.5568582e-06 2.1589262e-06
-1.3226744e-06 -6.648764e-07 -5.7184743e-06 3.9648007e-06 1.6288523e-06 5.8304386e-06 8.3700315e-06 1.5447152e-06
1.6688066e-06 3.3471129e-06 1.14612685e-05 2.8046545e-06 -9.008199e-06 -3.600939e-06 9.1442007e-07 2.2608515e-06
2.5083245e-06 -6.160407e-07 -2.5253962e-06 7.1963296e-07 2.3189352e-06 1.2599475e-06 -6.7912647e-06 -2.4270375e-06
7.413867e-07 -3.7147233e-06 1.5249537e-06 -2.0758378e-06 -1.3017254e-06 4.029937e-07 1.078679e-06 -4.1135395e-06
-1.6518625e-06 4.5965357e-06 -5.0301687e-06 7.842053e-06 -6.0924713e-06 9.862918e-06 -2.5094203e-06 3.4133977e-06
2.393553e-06 3.1713054e-07 -1.3214808e-06 -5.1934035e-06 1.8094944e-06 -1.1851345e-06 -5.320317e-06 -9.395406e-06
-2.6585726e-06 4.90561e-07 1.4917471e-07 -3.9529314e-06 2.2257555e-06 2.3231803e-06 -7.1457803e-06 3.0410117e-06
1.0039155e-05 3.4245177e-06 -8.03167e-06 -8.238121e-06 4.8799866e-06 9.01291e-06 -5.0984154e-06 -5.7149264e-06
4.9947275e-06 3.4229643e-06 -3.2741257e-06 5.913559e-07 -7.165904e-06 6.093461e-06 -6.3328375e-06 -5.4108227e-06
-5.9821004e-06 -5.5972714e-06 -4.0754826e-06 2.601221e-06 2.1914566e-06 4.7643484e-06 2.345764e-06 -1.0235686e-06
1.527476e-06 2.3230784e-06 -8.421434e-07 2.4035245e-07 -4.725866e-06 -5.925375e-06 1.3404433e-05 8.084803e-06
6.89701e-06 -4.064177e-06 -6.9465483e-07 4.0763002e-06 3.5214143e-06 -2.0599643e-07 1.6953434e-06 2.3187454e-06
-3.911409e-06 1.3316717e-06 5.166684e-06 5.47344e-06 3.872822e-06 2.3160146e-06 -4.7983385e-06 -4.6940795e-07
1.00388315e-05 -3.1720215e-06 -6.6530342e-06 3.615947e-07 7.710862e-07 -2.380497e-06 2.046838e-07 2.5108736e-06
3.1790314e-06 -4.8995807e-06 1.1430337e-05 8.5352826e-07 3.0430745e-06 8.739096e-07 8.109408e-06 -2.9441255e-06

layer2.1.weight f4 [128]
00000000: 6f57 543f 8956 6e3f aa6e 7d3f d190 803f
00000010: a9a4 603f 7234 613f ff6c 673f b054 683f
00000020: 93bd 673f 8a9d 6e3f 3308 803f 0414 833f
00000030: e4fc 713f 6895 783f a3c5 733f af93 753f
00000040: dc72 783f 694f 6f3f 2117 793f 3363 613f
00000050: 24af 683f 809d 6a3f 4b2b 5a3f 24db 683f
00000060: 8db2 833f 0e6e 703f 87b4 6d3f c090 633f
00000070: bcad 7b3f d066 633f 921a 683f 6c4a 683f
00000080: 673f 793f 1132 753f 5f59 763f edba 693f
00000090: 18ca 743f 68e6 663f ec07 743f ee83 6d3f
000000a0: 6b43 603f 236e 673f c7bd 6e3f 7454 6f3f
000000b0: e82e 803f d822 773f 1791 693f fb3f 683f
000000c0: 9171 643f 8a37 883f ed98 7e3f 5733 603f
000000d0: e098 6b3f b621 653f 08f5 613f 9b4d 823f
000000e0: e7bf 703f eb1d 683f 293c 6f3f 4aa3 7b3f
000000f0: 4ddf 773f 56db 813f 909a 703f bf0b 6c3f
00000100: 8df4 823f 2fe5 7d3f 0b82 7b3f 1e70 6f3f
00000110: 90e3 753f 47af 773f 85e7 643f f43f 753f
00000120: bc91 6e3f 42e1 5f3f bf3f 663f e23d 673f
00000130: 78c4 793f 10ba 6d3f 14de 6c3f 585f 823f
00000140: fb95 823f ac2f 803f b6ce 783f b718 6b3f
00000150: 8a37 753f ea57 6f3f 0856 793f 738a 803f
00000160: 00dc 533f d1ba 653f a21a 843f 452c 653f
00000170: 437a 733f 1a99 823f 3eba 6f3f 5656 823f
00000180: aa8d 823f 3e79 643f c336 6f3f 63aa 723f
00000190: 9e2f 663f 63c3 6c3f 852c 763f c701 813f
000001a0: 49af 773f 252f 753f 1cfb 733f db0e 723f
000001b0: 2597 6b3f b1c5 6b3f cfd9 7c3f 87d2 6e3f
000001c0: fa08 803f daa7 6b3f 7566 753f d8b5 7e3f
000001d0: 0f21 6b3f ff1e 7c3f 5367 563f ecbf 503f
000001e0: 33e7 7e3f 190f 663f 1222 7e3f 8ac2 6d3f
000001f0: 8138 753f 4706 633f 9700 7f3f 969e 733f
0.82945913 0.9310079 0.98996985 1.0044194 0.8775125 0.8797065 0.9040069 0.9075422
0.9052364 0.93209136 1.0002502 1.0240483 0.94526505 0.97102976 0.95223445 0.9592847
0.9705026 0.93480545 0.97300917 0.8804199 0.90892243 0.91646576 0.8522231 0.9095938
1.0288864 0.9391793 0.9285359 0.88892746 0.9831197 0.88828754 0.90665543 0.9073856
0.9736237 0.9577952 0.9623012 0.9130085 0.9562087 0.9019532 0.9532459 0.92779434
0.8760287 0.9040243 0.9325833 0.9348824 1.0014315 0.9653754 0.91237015 0.90722626
0.8923579 1.0641949 0.99452096 0.8757834 0.92030144 0.89504564 0.88264513 1.0179933
0.9404282 0.9067065 0.9345117 0.98296034 0.96825105 1.0145061 0.93985844 0.92205423
1.0230881 0.9917783 0.98245305 0.9353045 0.9605036 0.96751827 0.8941577 0.9580071
0.93191123 0.8745309 0.8994102 0.903288 0.9756541 0.92862034 0.92526364 1.0185347
1.020202 1.0014548 0.97190416 0.91834587 0.9578787 0.9349352 0.973969 1.0042251
0.8275757 0.89738184 1.0320628 0.89520675 0.9510843 1.0202973 0.9364356 1.0182598
1.0199482 0.892475 0.93442935 0.9479124 0.8991641 0.92485636 0.9616168 1.0078667
0.9675184 0.9577506 0.9530504 0.9455392 0.92027503 0.9209853 0.9876985 0.9328999
1.000274 0.92052996 0.9585946 0.9949622 0.9184732 0.98484796 0.8375141 0.8154285
0.9957153 0.8986679 0.9927074 0.9287497 0.95789343 0.88681453 0.99610275 0.9516386
