experiments/img2img/checkpoints/young_old_classifier.pth (torch, 669023 bytes, 13 tensors)

layer1.0.weight f4 [256, 512]
000000 e0 35 49 3d 6a 7a fd bd 14 f3 66 3d 86 af 73 3d
       0.049123645 -0.12376864 0.05638416 0.059493564
000010 0f 8f 84 bd 01 25 ce bc d8 01 be 3b 5f d9 5c 3c
       -0.06472599 -0.02516413 0.0057985596 0.01347956
000020 fa 64 85 bd 3f c2 96 3d 17 75 98 3c d9 2c f7 3b
       -0.065134004 0.07361268 0.01861052 0.007543188
000030 48 d2 cf bc b3 a2 88 3c 62 ba 46 3e 0d 5f cd 35
       -0.025368825 0.016679144 0.19407037 1.5301354e-06
000040 75 6a a1 bc 58 47 1f 3e 37 bd f3 bb 57 8b 93 bd
       -0.019704083 0.15554559 -0.0074383277 -0.07204311
000050 a2 61 89 3d ae 2e 81 3d f7 97 d0 bd d4 05 3d bd
       0.06708075 0.063077316 -0.10185235 -0.046148136
000060 e5 d8 b8 3c d6 c2 8c 3c 46 52 53 bd 32 9f 85 3d
       0.02256436 0.017182749 -0.051592134 0.06524505
000070 63 7b 24 bd 40 dd b0 3d 08 cb bb 3d 6b ea 1e bd
       -0.040156733 0.0863595 0.091695845 -0.038797777
000080 9e 87 e5 bd fc 6b 9e 3d 5b 60 0a 3e 63 e0 c6 bc
       -0.112075076 0.0773544 0.13513319 -0.024276918
000090 2c 3d 82 bc f0 2f 19 bd 4e 22 94 3d 77 87 4d bd
       -0.01589831 -0.037399232 0.072331056 -0.050178017
0000a0 3a 21 02 3e 5d f1 36 be 25 78 58 3b 16 d9 24 3e
       0.12707987 -0.1786551 0.0033030596 0.16098437
0000b0 6f ba 02 bd fe 7f 25 3e f9 43 6f bd 1e 9b cc 3d
       -0.03191608 0.16162106 -0.058414433 0.09990524
0000c0 16 dc 11 3d 87 9e 83 bd 6f 31 92 3c 3b 6b 84 3d
       0.03561028 -0.06426721 0.017845837 0.06465765
0000d0 66 ec 0d 3c e4 7d 2c 3d b0 bd 84 3d 25 c1 53 3d
       0.008662319 0.042112246 0.064814925 0.05169787
0000e0 2e 2d f6 3c 7a 53 24 bc 8f 30 99 bd 07 1b f3 bd
       0.03005084 -0.010029668 -0.07479965 -0.118703894
0000f0 2d 56 b6 bd f5 69 c6 3d 73 b3 19 3d 44 46 7d bc
       -0.089031555 0.096881784 0.03752465 -0.015458647
000100 61 2c 1d 3e 80 76 3f 3c 53 ca 7f bd e1 60 7f 3d
       0.1534896 0.011685967 -0.06244881 0.06234825
000110 f3 e4 43 bd 8d 2d 00 3d 92 76 2d bd 31 4a 84 bd
       -0.047825765 0.03129344 -0.042349406 -0.064594634
000120 4c 83 a4 3d 93 fd 3d 3d 5f 41 39 3e 6f a5 cc bd
       0.080328554 0.046384405 0.18091343 -0.099924915
000130 f5 b2 94 bd 5e 64 37 bd 09 e8 84 bd bb f9 77 3d
       -0.07260696 -0.044773452 -0.0648957 0.060540896
000140 ac d7 d4 bd 0a 43 94 3c 00 72 e3 bc 32 08 3f 3c
       -0.10392699 0.018098373 -0.02776432 0.011659669
000150 1f 78 40 bd 3e f0 10 bd 94 d7 01 be f7 9a 5f 3b
       -0.046989556 -0.035385363 -0.12679893 0.0034119466
000160 82 45 05 bd b2 07 54 bd 29 e0 25 3c 1f 30 23 3d
       -0.03253699 -0.05176515 0.010124245 0.039840814
000170 51 e1 08 be 25 22 23 bd 4e 99 d6 bd da 3a 85 bc
       -0.13367201 -0.039827485 -0.10478459 -0.016263414
000180 82 21 c0 3d 7f 5b ee bc 62 e0 b8 3c 83 9b 6c 3d
       0.09381391 -0.029096363 0.022567932 0.057765495
000190 c3 32 06 be 23 26 3b bc 88 18 14 3d 32 4a c1 3c
       -0.13105302 -0.011422667 0.036156207 0.02359495
0001a0 1e 17 f3 bd 0a eb e9 3d 8f 5b 84 bc 6e 83 a6 3c
       -0.11869644 0.11421783 -0.01615694 0.020326342
0001b0 27 cb ca 3d ac c6 92 3d 52 f6 f7 3d 52 68 54 bc
       0.099020295 0.071668 0.12107529 -0.012964325
0001c0 f3 af 29 bc cc 60 ba bd 9c 5d f4 bd 31 96 d9 bb
       -0.010356891 -0.09100494 -0.11931917 -0.0066402187
0001d0 64 4b bf bd 8a e8 30 3c c0 3c ff bc 8f da 76 3d
       -0.093405515 0.010797629 -0.031156898 0.060267027
0001e0 3a 70 ba 3d 7d b5 aa 3c 85 56 f4 3d 78 c6 14 3d
       0.09103437 0.020838493 0.11930565 0.036322087
0001f0 73 eb c3 bc 26 43 9c 3d 05 7c 8e 3b 63 a2 ec bc
       -0.023915982 0.07629995 0.0043482804 -0.028886026
000200 61 99 bf bc 6b 4b 6e 3c 3c ae 56 bd f1 6d 02 3e
       -0.023388566 0.014544348 -0.052412257 0.12737252
000210 70 d4 05 bd 90 31 83 3c ee 63 ae 3d 59 4f 83 3e
       -0.0326733 0.016014844 0.08515154 0.25646475
000220 03 f6 2b be ba 09 fb 3d 7e 81 86 bd 49 19 0b 3c
       -0.16793065 0.122577146 -0.065676674 0.008489915
000230 3c b7 3e bd 2c 69 eb bb 59 c1 8b bb 8b b7 b4 3d
       -0.046561465 -0.0071841683 -0.004264992 0.088240705
000240 f8 f2 ca 3d 98 6e 8d 3d 6f 6c a5 bd a3 c3 de 3d
       0.09909624 0.0690586 -0.08077323 0.108771585
000250 ad 45 a8 bd 25 a7 d2 3d a1 84 09 bc 3a 32 80 3d
       -0.082164146 0.102857865 -0.008393438 0.0625958
000260 59 b7 9e 3d 63 9b 0b be 70 c6 08 bd ec 4b 14 bd
       0.077498145 -0.13633494 -0.03339237 -0.036205217
000270 85 10 88 bc c9 db f2 3d ef 00 c4 3d 9c fc c7 bd
       -0.01660944 0.11858327 0.095704906 -0.09764978
000280 7e b6 05 be 66 2a 95 3d 1f 36 c9 3d e0 be 88 3c
       -0.13057896 0.072834775 0.09824776 0.016692579
000290 c3 fb 0e 3d 9c 61 a1 3c c9 d9 2d 3d 9a 37 81 bd
       0.034908067 0.019699864 0.042444024 -0.06309433
0002a0 00 fd 0c 3c 77 8e 89 3c 86 d1 06 3d b2 fa 69 bd
       0.008605242 0.016791565 0.03291466 -0.057123847
0002b0 11 e7 df bd 75 25 2d bd 50 15 ee bc c7 54 09 be
       -0.10932744 -0.04227205 -0.029062897 -0.13411246
0002c0 42 84 22 3d 69 47 4d be 11 80 3a bd c9 98 44 3d
       0.039676912 -0.20046772 -0.04553229 0.04799727
0002d0 c5 0b 31 3d 52 5e 8b bd b0 02 b4 bb 9a 4b cc bd
       0.043224115 -0.068050995 -0.0054934844 -0.09975357
0002e0 fa 31 ab bc 1a 53 05 3d 80 ac d1 3c dd a9 af bd
       -0.020897854 0.032549955 0.02559495 -0.08577321
0002f0 22 71 9a bd 99 72 30 bd 22 29 5e bd dc a6 cd 3c
       -0.075411096 -0.04307804 -0.054238446 0.025103979
000300 52 51 98 3b 28 57 d7 bd 92 45 3b bd be 6d b7 bd
       0.004648366 -0.105146706 -0.045720644 -0.089564785
000310 b2 5f 7c bd a2 fc 7b 3c 10 f3 16 be 84 18 42 bd
       -0.0616147 0.015380057 -0.14741158 -0.04738666
000320 6b 70 ba bd d8 c1 60 3d 5f 45 00 3e 38 8f b6 3d
       -0.09103473 0.054872364 0.12526463 0.089140356
000330 fb db 27 3d 2e 1e b1 3c c1 7c ab bd 0d d1 37 3d
       0.040981274 0.021620836 -0.08373404 0.0448771
000340 59 ac 9b bd f7 25 b0 bc 6b bd 81 bc 11 97 c6 3c
       -0.07601232 -0.021502478 -0.015837392 0.024241956
000350 35 41 77 3d 54 4e 4d 3c 1c 26 79 3d 33 bd b7 3d
       0.06036492 0.012530882 0.06082736 0.08971634
000360 71 66 f6 bd 67 62 f0 bc 95 cc eb 3c 4e 56 18 be
       -0.12031258 -0.029343797 0.028784076 -0.14876673
000370 a5 a4 6e bb 02 59 90 bc eb 2e 29 3d 7a cb d3 bd
       -0.0036414054 -0.017620567 0.04130451 -0.103415444
000380 ee 01 bc 3b 06 11 e7 bd e5 23 5d bc 10 fa e7 bb
       0.0057375347 -0.11282544 -0.013497327 -0.0070793703
000390 65 66 43 bc a3 06 77 bd 6b 4c 54 3d 14 6d 55 bd
       -0.011926268 -0.060309064 0.05183069 -0.052105978
0003a0 74 78 19 bd 66 56 41 3b 37 14 f5 3d 27 b3 08 be
       -0.03746839 0.002950096 0.11966746 -0.13349591
0003b0 9d db 79 3d 73 0c de bb 29 98 29 3d 2b bd a8 bc
       0.061000455 -0.0067763864 0.041404877 -0.020598015
0003c0 60 61 2d bd 74 a7 94 bd a6 c1 57 bd d6 7a 3d 3d
       -0.042329192 -0.07258502 -0.052674912 0.046259724
0003d0 78 e6 5f bb 6d b9 57 bd 27 78 0d bd e6 e3 05 be
       -0.003416447 -0.05266707 -0.034538414 -0.13075218
0003e0 fb 80 b7 3d 1c 31 a0 bb 2c 27 09 bd 77 3d 30 bd
       0.08960148 -0.004888667 -0.033484623 -0.043027367
0003f0 73 d3 b6 bd 1f 46 23 bd 22 ff 96 3d 84 4c 5f 3d
       -0.089270495 -0.039861795 0.073728815 0.05451633

layer1.0.bias f4 [256]
000000 c7 f4 c7 35 55 0f 6c b6 56 3c 31 b3 d8 a8 20 b6
       1.4897895e-06 -3.5175665e-06 -4.12659e-08 -2.3940138e-06
000010 52 5c 80 35 dc f3 1b b6 bb 6e 61 b3 e8 5b 09 b5
       9.563612e-07 -2.3238745e-06 -5.2487604e-08 -5.117022e-07
000020 76 2f 31 36 06 98 02 35 0d 5e 3b 34 71 eb 14 36
       2.6402681e-06 4.8649997e-07 1.7449948e-07 2.2190764e-06
000030 18 f1 cb b5 34 50 08 37 60 1c 64 37 ed 89 fb b5
       -1.5194846e-06 8.124905e-06 1.3596466e-05 -1.8741099e-06
000040 79 6b 2a 34 51 1d 87 b5 33 41 4f 35 f3 78 57 b5
       1.5871582e-07 -1.0066816e-06 7.7208387e-07 -8.0269746e-07
000050 b6 7f 8e 34 97 8a 8f 36 91 8a ac b6 49 b3 2e b7
       2.6542483e-07 4.277866e-06 -5.1421307e-06 -1.0412951e-05
000060 95 bd 59 b6 d6 05 55 35 d5 3d 80 36 9f c3 95 b6
       -3.244587e-06 7.9357176e-07 3.8218955e-06 -4.4633193e-06
000070 66 5f 85 35 05 d1 7d 35 f6 54 d6 b6 fb c6 e6 b6
       9.937037e-07 9.455401e-07 -6.3875877e-06 -6.8776985e-06
000080 b7 48 ae b5 1f 2a 1d 35 93 aa 38 b5 e2 e0 f1 36
       -1.2985173e-06 5.854835e-07 -6.879356e-07 7.2085395e-06
000090 8c 9f 43 b6 f0 b7 3e b6 8e 25 9e b6 c3 97 da b5
       -2.9150133e-06 -2.8419272e-06 -4.713139e-06 -1.6286434e-06
0000a0 44 df 55 b6 5b ed a5 b6 ac 39 b6 b4 93 72 fa b6
       -3.186943e-06 -4.945015e-06 -3.3942104e-07 -7.463919e-06
0000b0 4f 18 5f 36 21 60 8f b5 6a d6 45 36 26 f9 96 35
       3.324374e-06 -1.0682307e-06 2.9480093e-06 1.1248383e-06
0000c0 56 57 de b6 de 06 99 35 6b d5 73 36 a4 5a 14 b7
       -6.626283e-06 1.1401387e-06 3.6334047e-06 -8.842591e-06
0000d0 57 7d f7 36 4e 18 8f 35 e7 d4 1c b6 82 16 0a 32
       7.375765e-06 1.0661404e-06 -2.3369737e-06 8.037775e-09
0000e0 b2 ea 96 36 98 e6 48 36 25 76 44 34 f9 a0 b1 b6
       4.4976705e-06 2.9936546e-06 1.8296903e-07 -5.2937507e-06
0000f0 78 3c 06 36 cc 7c 09 34 ce 6e eb 35 0c 51 3d 36
       2.0002753e-06 1.280452e-07 1.7541113e-06 2.821037e-06
000100 03 71 e9 b5 28 a9 0f 36 97 16 2e 35 af cf 24 b6
       -1.7392744e-06 2.1407122e-06 6.4852924e-07 -2.4558792e-06
000110 4b a4 3d b7 1c 77 39 37 8d b6 d4 b6 b2 5a aa b4
       -1.130353e-05 1.1054592e-05 -6.339344e-06 -3.1730957e-07
000120 c6 a0 37 36 9f 33 a0 b6 a4 f1 9e 35 4d d0 fb 35
       2.7362707e-06 -4.774381e-06 1.1842244e-06 1.8761581e-06
000130 9c 8f fe 35 ca 2f f7 b5 ee 82 6b 36 04 ed 58 b5
       1.896627e-06 -1.8416843e-06 3.509394e-06 -8.0811174e-07
000140 d4 3f ee 35 66 b0 8d 33 a7 36 f6 35 0c 67 c5 b5
       1.7750958e-06 6.597911e-08 1.8344334e-06 -1.4707634e-06
000150 de fc 22 34 ad a5 36 b6 dd 42 83 b5 8a 4a 03 35
       1.5179418e-07 -2.721655e-06 -9.77972e-07 4.890977e-07
000160 ba 2f 61 b6 fd 6f c2 36 c8 df 2f b6 6a c3 36 37
       -3.3555393e-06 5.7946877e-06 -2.620729e-06 1.0893544e-05
000170 c9 9a d1 b6 7c e6 64 b6 4d 07 eb 33 f5 cd 56 b6
       -6.2467047e-06 -3.4108807e-06 1.0944368e-07 -3.2008368e-06
000180 54 c3 9a 36 5d 44 a5 b6 1a 81 b2 36 60 22 87 b5
       4.612297e-06 -4.9253417e-06 5.319843e-06 -1.0068288e-06
000190 1a 03 5b 34 51 d4 7e 35 a8 de f8 35 3b 3b 3e b5
       2.0397093e-07 9.4931335e-07 1.8542241e-06 -7.086671e-07
0001a0 1f 66 83 b4 b2 fd 07 b6 ec 95 29 b6 09 6b dd b6
       -2.4474954e-07 -2.0264238e-06 -2.5270228e-06 -6.598774e-06
0001b0 f9 ef ea 35 13 19 00 b5 7b 63 88 b5 34 a0 77 35
       1.75042e-06 -4.7720204e-07 -1.0161742e-06 9.2247797e-07
0001c0 4b 96 98 36 b3 8e 63 b5 b8 8c 79 34 c0 10 f0 b5
       4.5474494e-06 -8.4771744e-07 2.3241125e-07 -1.7886268e-06
0001d0 43 1f 52 b4 71 d4 21 37 75 5f 6b b5 e1 c1 a2 b5
       -1.9569147e-07 9.645811e-06 -8.768323e-07 -1.2126367e-06
0001e0 29 62 3b 37 0f 0e 9b b5 83 0a 82 b5 12 e0 c0 35
       1.1168923e-05 -1.1552492e-06 -9.688814e-07 1.4370328e-06
0001f0 2c 56 f6 35 1c f6 e9 b5 f4 f9 7d b5 73 9e 81 b5
       1.8353508e-06 -1.743148e-06 -9.4613574e-07 -9.657364e-07
000200 4a ee 5e 36 d5 66 52 b6 58 59 2c 36 c0 24 81 35
       3.321928e-06 -3.1352295e-06 2.5682002e-06 9.621945e-07
000210 0f ca c2 b6 41 cb 05 b7 a2 ec 74 b6 67 df 11 35
       -5.8051733e-06 -7.9747415e-06 -3.6496572e-06 5.43418e-07
000220 1e a4 f0 b5 ec 0f b5 33 9b d6 8a 36 d8 7c ad 36
       -1.7929158e-06 8.4313655e-08 4.137704e-06 5.1703355e-06
000230 fe 64 f4 35 a5 0e 25 36 c4 4a 08 36 d9 db 42 36
       1.8208809e-06 2.459544e-06 2.0309099e-06 2.903622e-06
000240 ee 82 a7 35 d5 be 0d 36 4b 20 4e 34 b0 fb 27 b6
       1.2480575e-06 2.1121716e-06 1.9196993e-07 -2.503144e-06
000250 c4 16 99 36 5e 21 a8 35 9a 59 82 36 7e 3e bc b5
       4.5624056e-06 1.2526687e-06 3.884733e-06 -1.4025279e-06
000260 36 c0 d6 b5 f8 a7 a8 b6 59 8b 99 35 3e db 4e 36
       -1.6000183e-06 -5.0263443e-06 1.1439944e-06 3.0824008e-06
000270 8d db 7d b6 9a ac 1e 37 60 a8 7e b5 96 f6 4f b7
       -3.7827733e-06 9.457721e-06 -9.486739e-07 -1.2395574e-05
000280 02 38 e4 36 59 e4 d1 b6 51 ef 52 b5 b6 39 a4 34
       6.8014497e-06 -6.2552685e-06 -7.857935e-07 3.058937e-07
000290 97 7e 9d b6 98 a8 72 b6 0a a8 c6 36 9b 4a 0d b6
       -4.6937016e-06 -3.6158945e-06 5.920422e-06 -2.1054063e-06
0002a0 72 2d 06 b6 97 4e b5 35 0f ab 1d 36 e6 1e b7 35
       -1.9994009e-06 1.3508424e-06 2.3494392e-06 1.3643555e-06
0002b0 ad 50 19 b6 cf b8 e3 b5 a8 58 c1 36 02 ac 9a b4
       -2.2845736e-06 -1.6966604e-06 5.762169e-06 -2.8809887e-07
0002c0 02 07 80 36 5d 3d fc b4 6b 66 0a b7 68 3a fb 35
       3.815513e-06 -4.6983305e-07 -8.249287e-06 1.8717956e-06
0002d0 fc 7e c7 34 db 47 0b b6 72 35 d0 35 b4 ad 95 b5
       3.7159032e-07 -2.075444e-06 1.5512762e-06 -1.1151919e-06
0002e0 cb c9 ee 34 b7 68 a0 34 b3 cf 8e 35 f3 db ef b5
       4.4477778e-07 2.9878512e-07 1.0640273e-06 -1.7870901e-06
0002f0 19 04 21 b6 ec 1f 9c 35 65 d9 e9 35 b3 03 97 36
       -2.3993255e-06 1.1632196e-06 1.7423123e-06 4.5005813e-06
000300 99 d9 32 b5 da a3 50 36 5a c0 0c b5 5f e5 a1 34
       -6.6626814e-07 3.108979e-06 -5.243397e-07 3.0155476e-07
000310 c3 b8 35 b6 08 86 b7 b6 16 9c 8c b6 61 ea 58 b5
       -2.7078647e-06 -5.4694283e-06 -4.190496e-06 -8.0807337e-07
000320 85 2b f4 35 33 0d 9f b4 cc 41 c3 b4 27 fe 9e 36
       1.8192083e-06 -2.9625662e-07 -3.6369454e-07 4.738354e-06
000330 be a2 6e b5 e2 25 e5 b4 1b 99 dd b5 2f f9 ac 33
       -8.889873e-07 -4.2682137e-07 -1.6510343e-06 8.0547004e-08
000340 7c ef 60 36 ea f5 e4 34 ed 9a 0c 35 40 e1 ce 36
       3.3518e-06 4.2647235e-07 5.237951e-07 6.165501e-06
000350 18 56 7c 36 70 5a a7 b5 9e 51 8c 36 8c 9b d0 34
       3.760104e-06 -1.246879e-06 4.1818266e-06 3.8856194e-07
000360 dc e6 df b3 e8 5a 27 b6 c8 00 a3 35 73 03 0a 37
       -1.042624e-07 -2.4937854e-06 1.2144674e-06 8.226244e-06
000370 9b 07 14 b4 fe 17 da b5 0a ea e6 b6 7a 90 bc b4
       -1.3786341e-07 -1.6249248e-06 -6.88178e-06 -3.512285e-07
000380 d4 5f e2 b5 97 cf db 35 dc 48 1d 36 bb 30 6e b3
       -1.6866202e-06 1.6377188e-06 2.3437233e-06 -5.5458013e-08
000390 ca d2 67 34 60 3e ac 36 bd 09 c7 35 ef 7c 6c 35
       2.1590236e-07 5.133261e-06 1.482949e-06 8.8098653e-07
0003a0 e4 70 87 34 f6 9f 4e 35 45 7e ea 36 bb f3 af 36
       2.5227848e-07 7.6973754e-07 6.988443e-06 5.2437804e-06
0003b0 01 bf 7e 36 3d 39 1d b4 a9 96 0d 37 a1 99 12 b6
       3.7960128e-06 -1.4642588e-07 8.439333e-06 -2.184512e-06
0003c0 92 bf 41 b6 05 6f 07 b6 bc 61 3e b6 b1 cc fd 35
       -2.887075e-06 -2.018119e-06 -2.8369095e-06 1.8909542e-06
0003d0 fe 63 0d 36 08 05 15 b7 d5 5f d3 b6 1b b8 e6 35
       2.106884e-06 -8.8822635e-06 -6.2994463e-06 1.7189917e-06
0003e0 45 94 7f 36 b4 da 12 34 d3 54 37 36 2a d2 6b b6
       3.8084265e-06 1.3676873e-07 2.73185e-06 -3.514006e-06
0003f0 b7 e5 e8 b6 fa 72 89 b5 1e 05 08 b6 d2 1f 7e 36
       -6.940881e-06 -1.0240758e-06 -2.0268558e-06 3.7867471e-06

layer1.1.weight f4 [256]
000000 b2 f1 6b 3f 01 8a 81 3f d5 75 80 3f 8d 87 61 3f
       0.9216567 1.012024 1.003596 0.8809746
000010 95 fb 74 3f 1c 9c 57 3f db 83 66 3f 35 36 79 3f
       0.95696384 0.8422258 0.90044945 0.9734834
000020 37 23 82 3f 49 9d 6b 3f f5 b1 6d 3f c5 38 83 3f
       1.0166997 0.92036873 0.92849666 1.02517
000030 2c 13 7c 3f d6 ae 84 3f 25 66 91 3f 82 5e 72 3f
       0.98466754 1.0365856 1.1359297 0.9467546
000040 ab 94 6f 3f ba 98 76 3f 37 91 49 3f 36 14 81 3f
       0.93586224 0.9632679 0.78737205 1.0084293
000050 05 35 79 3f ae 60 6f 3f 81 c2 6b 3f ca 3e 7b 3f
       0.97346526 0.93506896 0.92093664 0.98142684
000060 dc 24 83 3f f5 74 67 3f 45 41 60 3f b7 b4 71 3f
       1.0245624 0.9041284 0.87599593 0.94416374
000070 e2 9c 70 3f 7e b2 56 3f 51 01 6d 3f 15 49 58 3f
       0.93989384 0.8386611 0.92580134 0.84486514
000080 c2 c2 64 3f 6e f1 87 3f a0 62 82 3f 02 37 74 3f
       0.89359677 1.0620553 1.0186348 0.95396435
000090 df 33 70 3f e9 a1 77 3f c1 49 80 3f 20 72 6a 3f
       0.9382915 0.9673143 1.0022508 0.9158039
0000a0 b4 82 6f 3f a0 0d 79 3f 00 38 85 3f 24 46 7b 3f
       0.9355881 0.97286415 1.0407715 0.981539
0000b0 d7 23 58 3f 00 5b 57 3f 9e 95 83 3f 83 6b 69 3f
       0.8442969 0.8412323 1.0280035 0.91179675
0000c0 24 17 84 3f 70 58 68 3f d3 c4 3d 3f fa ea 80 3f
       1.0319562 0.90759945 0.74128455 1.0071709
0000d0 cd db 7c 3f f7 25 64 3f 68 da 41 3f bb aa 82 3f
       0.9877289 0.8912043 0.75723886 1.0208353
0000e0 29 6a 7a 3f f1 54 76 3f b6 d8 80 3f 14 e3 7f 3f
       0.9781824 0.9622336 1.0066135 0.9995587
0000f0 a7 12 62 3f 30 74 72 3f fd d8 73 3f 34 97 6c 3f
       0.8830971 0.9470854 0.9525297 0.9241822
000100 d1 f7 70 3f 9a cc 64 3f 74 3a 6e 3f 95 fe 66 3f
       0.9412814 0.893747 0.9305794 0.9023221
000110 b4 df 72 3f e7 9a 81 3f b3 5c 81 3f 27 dc 60 3f
       0.94872594 1.0125397 1.0106415 0.87835926
000120 70 c6 59 3f 12 fb 73 3f 14 cb 44 3f 3e 1f 69 3f
       0.85068417 0.9530498 0.7687237 0.91063297
000130 a2 1f 74 3f 94 36 71 3f d7 1e 85 3f 52 1c 6e 3f
       0.9536077 0.94223905 1.0400037 0.93011963
000140 8c 4f 75 3f 2b 7f 5e 3f 30 9c 79 3f cc 58 7e 3f
       0.95824504 0.8691279 0.9750395 0.99354243
000150 9d 16 57 3f 25 41 5e 3f 47 2b 86 3f 23 96 73 3f
       0.8401888 0.8681815 1.0481957 0.95150965
000160 0d f3 61 3f 81 a6 7a 3f 4a af 53 3f 0c 10 6b 3f
       0.8826149 0.97910315 0.82689345 0.9182136
000170 e8 e4 5e 3f 0c 58 83 3f 51 08 7c 3f 97 10 61 3f
       0.87068033 1.0261245 0.9845019 0.8791594
000180 db 1e 88 3f e3 9e 70 3f a3 b1 6b 3f 50 38 69 3f
       1.0634416 0.9399244 0.9206793 0.9110155
000190 15 20 7a 3f da e4 85 3f 58 63 70 3f 7f 0e 82 3f
       0.97705203 1.0460465 0.93901587 1.0160674
0001a0 3f 53 80 3f 21 db 65 3f 7d 52 57 3f 29 54 7b 3f
       1.0025405 0.8978749 0.8411024 0.98175293
0001b0 0c 1a 67 3f bb 07 6c 3f 8b 01 5b 3f 5b e2 6f 3f
       0.9027412 0.92199296 0.8554923 0.93704766
0001c0 f0 91 73 3f d6 ac 81 3f ba a6 78 3f a5 a9 7a 3f
       0.9514456 1.013087 0.97129405 0.97915107
0001d0 f2 16 67 3f bb 6b 73 3f ac bb 8c 3f be 4a 7e 3f
       0.90269387 0.9508626 1.0994773 0.993328
0001e0 71 55 78 3f 80 92 58 3f 62 45 7f 3f 3f ad 6f 3f
       0.97005373 0.8459854 0.99715245 0.9362373
0001f0 0a ff 76 3f 3b 9d 62 3f 3b b8 87 3f 19 e7 59 3f
       0.9648291 0.88521165 1.0603098 0.8511825
000200 5a 9a 59 3f a2 c6 6f 3f 78 94 7a 3f c3 8d 76 3f
       0.85001147 0.93662465 0.97882795 0.9631006
000210 a4 5e 6e 3f 0f 70 5d 3f 7a 02 72 3f 33 5f 71 3f
       0.9311316 0.8649911 0.9453503 0.9428589
000220 74 22 80 3f 08 33 7e 3f 5f 9a 67 3f 0c ab 5f 3f
       1.0010514 0.9929662 0.90469927 0.8737037
000230 dd c3 66 3f 32 26 69 3f 37 1f 56 3f ff e1 69 3f
       0.90142614 0.91073906 0.8364138 0.9136047
000240 88 95 3c 3f 30 7b 7a 3f 91 9e 76 3f b8 01 71 3f
       0.73665667 0.9784422 0.96335703 0.9414325
000250 14 34 67 3f 95 bd 52 3f 70 31 51 3f 3b 3d 82 3f
       0.9031384 0.8232053 0.8171606 1.0174936
000260 e2 02 62 3f 01 52 6f 3f 0e 8f 71 3f 1d 68 81 3f
       0.8828565 0.93484503 0.9435891 1.0109898
000270 ee 16 85 3f 25 f9 6a 3f c0 b5 7c 3f 07 2c 6f 3f
       1.0397623 0.91786414 0.9871483 0.93426555
000280 4a ca 6c 3f fd 22 86 3f 10 42 7a 3f c4 ce 56 3f
       0.9249617 1.0479428 0.97757053 0.8390925
000290 99 cd 7b 3f 8a 80 5c 3f 2e 69 71 3f 1a 9a 76 3f
       0.9836059 0.86133635 0.94301116 0.9632889
0002a0 12 6f 83 3f a2 47 7a 3f 68 c3 65 3f 18 b0 89 3f
       1.0268271 0.97765553 0.8975129 1.0756865
0002b0 21 65 85 3f a2 d5 57 3f 5a c2 65 3f e4 24 71 3f
       1.0421487 0.8431035 0.8974968 0.94196916
0002c0 90 25 65 3f 65 41 67 3f 49 0a 7f 3f fa e6 5d 3f
       0.8951044 0.9033416 0.9962507 0.8668057
0002d0 d2 51 81 3f 3e f2 83 3f 9c 2e 87 3f 37 18 65 3f
       1.0103095 1.0308301 1.0561099 0.89490074
0002e0 54 43 78 3f 35 ca 6e 3f c6 8d 4d 3f c4 2b 62 3f
       0.96977735 0.93277293 0.80294454 0.8834803
0002f0 49 e5 73 3f e4 87 61 3f 89 a8 5a 3f 60 94 7e 3f
       0.95271736 0.8809798 0.85413414 0.9944515
000300 cb 68 84 3f e7 62 69 3f 19 d9 6e 3f 29 2c 6c 3f
       1.034448 0.9116654 0.93300015 0.92254883
000310 05 dd 6f 3f 2c dc 7b 3f dc fb 6c 3f 6c cb 63 3f
       0.93696624 0.9838283 0.92571807 0.8898227
000320 27 5d 82 3f 3a 98 6c 3f b3 69 83 3f 75 27 72 3f
       1.0184678 0.9241978 1.0266632 0.94591457
000330 d7 59 74 3f 0e 42 7b 3f 44 8b 6f 3f d4 d9 68 3f
       0.95449585 0.98147666 0.9357188 0.9095738
000340 af 4b 83 3f 82 9a 80 3f 36 1f 76 3f 63 d0 6d 3f
       1.0257472 1.0047152 0.96141374 0.928961
000350 aa ba 6f 3f e7 78 5d 3f 86 79 82 3f 7d 2c 4c 3f
       0.936442 0.8651261 1.0193336 0.79755384
000360 e0 c8 6a 3f f1 ad 67 3f b5 77 71 3f ea 7b 68 3f
       0.9171276 0.9049979 0.94323283 0.9081408
000370 8f 99 72 3f cd a1 81 3f a3 51 78 3f 73 32 75 3f
       0.9476556 1.0127503 0.9699957 0.95780104
000380 17 8d 79 3f b9 2b 78 3f aa 00 74 3f 2a dd 6d 3f
       0.9748091 0.96941715 0.95313513 0.92915595
000390 26 a3 6d 3f 54 96 7b 3f 9a 52 6d 3f ec 96 74 3f
       0.9282707 0.9827626 0.92704165 0.9554279
0003a0 7b c7 50 3f 0d ce 85 3f b2 42 83 3f 5f fa 40 3f
       0.81554383 1.0453507 1.0254729 0.75382036
0003b0 fb 46 52 3f 9a 55 76 3f 9a d4 73 3f 8f cc 69 3f
       0.8213956 0.9622437 0.9524628 0.91327757
0003c0 9c bf 61 3f 97 29 5a 3f 82 bc 6b 3f aa cf 80 3f
       0.88183 0.8521971 0.92084515 1.0063374
0003d0 83 be 70 3f 9d 13 68 3f e3 3b 5e 3f 79 50 72 3f
       0.940407 0.9065493 0.8681013 0.9465404
0003e0 ca a5 69 3f 99 36 4e 3f d8 d7 74 3f 55 18 71 3f
       0.912686 0.8055206 0.9564185 0.9417775
0003f0 17 66 8b 3f 82 bc 7c 3f 98 a4 74 3f fd 48 6e 3f
       1.089053 0.9872514 0.9556365 0.9308012

layer1.1.bias f4 [256]
000000 1d 6c d8 bc 33 a3 09 bd c3 2c 07 be 21 a3 39 3c
       -0.02641874 -0.033602905 -0.13200669 0.011330397
000010 fd 50 4e bd e2 92 b5 be 82 30 92 be 50 83 c4 be
       -0.050370205 -0.35463625 -0.28552634 -0.38381433
000020 c7 40 05 bd 4b c5 b1 bd df 4a 6e be a6 48 92 bd
       -0.03253248 -0.08680209 -0.23270749 -0.07142763
000030 79 af c3 3c 0a 68 89 3d 4c db c0 3d 31 a6 42 bd
       0.023887383 0.06709297 0.094168276 -0.047521774
000040 7c b6 29 3d ca 9a 47 3d 3b 19 3d bd 29 bc 3c be
       0.041433796 0.048731603 -0.04616664 -0.18431152
000050 0a ea b2 bc 76 12 66 bd 49 8c 03 bd a3 3d 58 be
       -0.021840114 -0.05616995 -0.03211621 -0.21117263
000060 66 14 15 bd b0 64 02 bd eb 22 18 bd 2c 6b 98 be
       -0.036396407 -0.031834304 -0.037142675 -0.29769266
000070 c9 cb de bb e1 2a 25 be f8 c3 97 be e9 16 98 be
       -0.0067991954 -0.16129638 -0.296417 -0.2970498
000080 60 00 45 bc b3 2b 62 3c fc 11 aa bb b8 05 9d 3c
       -0.012024015 0.013804364 -0.005190132 0.019167766
000090 53 ea c5 bc d5 a7 1d bc 86 1c 3c bd d8 1e 53 bd
       -0.024159586 -0.009622534 -0.04592564 -0.051543087
0000a0 cd 8e 5f be 2b 71 59 bd 3e d3 1f 3d 83 3d 74 be
       -0.21831818 -0.05308644 0.039019816 -0.2385159
0000b0 97 28 b3 3d b3 06 49 ba d6 24 95 3d 4a e0 b1 3c
       0.08747976 -0.000766854 0.072824165 0.021713395
0000c0 7f 31 f4 bd 85 fb 23 bd 61 d7 3f be a8 a6 05 3d
       -0.11923503 -0.04003479 -0.18734504 0.03262964
0000d0 24 f8 40 3c 9b 55 c0 bd 0a 12 1b be b7 d3 86 ba
       0.011777911 -0.09391328 -0.151436 -0.0010286485
0000e0 cb a0 67 3c f9 13 02 be 7a 66 17 be fb e7 c6 bb
       0.014137457 -0.12702931 -0.14785185 -0.0060701347
0000f0 e0 04 24 be 16 ea 37 be 28 53 aa bd d0 08 9c bd
       -0.16017485 -0.1796039 -0.08316642 -0.07618868
000100 2a ba a5 bd 64 a2 97 be df 2a 8e be e0 be 0a bd
       -0.080921486 -0.29616082 -0.27767083 -0.03387344
000110 3f 3f 75 bd 6c f4 d8 bd 62 f5 6d be 30 11 08 be
       -0.05987477 -0.10593495 -0.23238137 -0.13287807
000120 4a 8a 20 be e8 57 1a 3d 20 46 d0 bc e3 05 4c be
       -0.15677753 0.03768149 -0.025424063 -0.1992412
000130 69 04 b8 bd 0b 4f e7 bd a6 88 08 3d 24 64 1d be
       -0.08985216 -0.11294373 0.033333443 -0.15370232
000140 07 ce a9 bd c4 b0 52 bd 94 d7 b5 bd b4 f7 81 be
       -0.0829125 -0.051438108 -0.08879009 -0.25384295
000150 87 5f 9a be 1c 3a 8e bd 9d 3e 14 bd b0 60 2d bd
       -0.30151007 -0.06944677 -0.036192525 -0.042328537
000160 6f 20 f0 3c 52 f2 34 bd b3 10 40 be ce cf 41 be
       0.02931234 -0.044176407 -0.1875637 -0.18926927
000170 08 57 fb 3b 80 66 24 be 68 52 93 bd 11 7c 04 be
       0.007670287 -0.16054726 -0.07193452 -0.12937953
000180 58 f4 63 3c ba 6e 66 be 65 47 b6 bd d0 0b 81 be
       0.013913237 -0.22503176 -0.08900336 -0.25204325
000190 47 82 25 be fe 72 d0 3c 92 83 ea bc 2f 10 95 bc
       -0.16162978 0.025445458 -0.02862719 -0.018196194
0001a0 98 2d 54 3b 51 30 88 be b7 ee 35 3d 7f dc e4 3c
       0.0032375809 -0.26599362 0.04441711 0.027937172
0001b0 71 95 dd bc a1 55 a7 bd 67 2a 23 bd 6c 2d d9 bc
       -0.027048798 -0.08170629 -0.03983536 -0.026510917
0001c0 c6 21 24 be c2 10 0b 3d cf 2a 8c 3c 95 28 fe bc
       -0.16028509 0.03395153 0.017110256 -0.03102521
0001d0 d5 3d ad bc 42 e5 6d be 28 80 c6 bb 37 e6 97 3b
       -0.021147648 -0.23231986 -0.006057758 0.004635598
0001e0 b4 ed 87 bd 9d 56 d5 bd 50 ca 8e 3c f1 e2 7e 3b
       -0.06637135 -0.10416911 0.017430454 0.0038892592
0001f0 c1 a2 35 bd 24 15 bd bc 74 2c e9 3a ca a3 1e be
       -0.044344667 -0.02308137 0.0017789737 -0.15492168
000200 45 dd c4 bd 77 9c 98 bd 54 dc 00 bd c8 51 56 bc
       -0.09612516 -0.07451718 -0.03146012 -0.013081022
000210 d5 43 93 be e5 41 3d be 81 ef e9 ba c2 0a 6b be
       -0.2876269 -0.18482168 -0.0017847867 -0.22953323
000220 dd 7c 1a bd ac 4c 6f bd 37 24 32 be 3a a9 11 be
       -0.037716735 -0.05842273 -0.17396627 -0.14224711
000230 6e 02 68 3c 16 d5 c8 bd be 54 0d be 55 ff 5a be
       0.0141607355 -0.09806268 -0.13801858 -0.21386464
000240 be 53 8e be 64 2f 5f bd c4 5a c2 3c 8a d8 c7 bd
       -0.27798265 -0.054488555 0.023724921 -0.097580984
000250 be 8c 21 be a0 eb bf bc 09 9c 08 be 0f 5c 51 bd
       -0.15776345 -0.023427784 -0.13340773 -0.051113185
000260 49 09 db bd 6f 94 0f be 08 64 9c 3c 05 5e ab bd
       -0.106951304 -0.14021467 0.019090667 -0.08367542
000270 ee ea 79 bd 21 d2 62 3d f5 3f c1 bd 44 5a f8 bd
       -0.061015062 0.055376176 -0.09436027 -0.12126592
000280 15 90 4a be f9 b5 e8 bc f0 7c 7c 3d 32 3b 11 be
       -0.19781525 -0.028407084 0.061642587 -0.14182737
000290 d4 69 08 be b3 8d 4e bd c8 c3 18 bd ea fc 61 be
       -0.1332162 -0.050428104 -0.037296087 -0.22069135
0002a0 fe 9b 83 be f0 a2 a3 bd 3a 6d 61 be 50 24 67 bd
       -0.2570495 -0.07990062 -0.22014323 -0.056431115
0002b0 c9 08 c2 3c 85 d3 92 be 60 79 35 be ca f7 a8 bc
       0.02368583 -0.28677002 -0.17722082 -0.020625968
0002c0 8d d0 1b bd ff e4 99 bd 7c 1f ff 3c 47 b5 89 be
       -0.038040686 -0.07514381 0.031142943 -0.26896116
0002d0 0c b4 24 bd 8c e9 6a be ad ca ba bc 26 39 d5 bd
       -0.04021077 -0.22940654 -0.022801721 -0.10411291
0002e0 a6 e6 17 be 5c 64 87 be 72 e2 3f be c0 8e cb 3c
       -0.14834079 -0.26443756 -0.18738726 0.024848342
0002f0 7d 89 4b bd 4b d5 27 be 98 57 a5 be 41 59 48 bd
       -0.049691666 -0.16389959 -0.3229339 -0.048913244
000300 07 fe 15 be ea ed 0c bd af 6a 3d be f7 f5 41 be
       -0.14647685 -0.03440658 -0.18497728 -0.18941484
000310 ae c1 d5 bd d1 c8 b3 bc 7e 4f 96 be d3 fc 99 bd
       -0.10437332 -0.021946343 -0.29357523 -0.075189255
000320 6a 57 c9 3c 4b 5e 91 be b4 a9 8c bc fa a0 b4 bd
       0.024577815 -0.28392252 -0.017170765 -0.08819766
000330 9f 44 c5 bc d0 6f 04 bc 44 53 06 bd 81 5e 90 bd
       -0.024080573 -0.008083299 -0.032794252 -0.07049275
000340 08 9c 3f bc 17 59 3d bd 04 52 14 bd f5 f6 2d be
       -0.011694916 -0.04622754 -0.03621103 -0.16988738
000350 94 a5 31 bc a9 6c 89 bd 05 91 f4 3c 50 a7 2c be
       -0.0108427 -0.067101784 0.029854307 -0.168607
000360 37 8b 0f be bc 0f 05 be 04 50 5b be 78 13 8f be
       -0.1401795 -0.12994283 -0.21417242 -0.2794454
000370 7f 1b 6a 3d fa 8d 02 be 9d b8 1b 3d ec 3e b8 be
       0.05715513 -0.12749472 0.038017858 -0.35985506
000380 09 5b 34 bb b4 d2 9b bd cd 4e 7b be 26 53 b9 bd
       -0.0027520081 -0.07608548 -0.24541779 -0.090490624
000390 bb 1f b0 bd af a9 58 be 39 22 df bd a0 7b 64 be
       -0.08599802 -0.21158479 -0.10895199 -0.22312784
0003a0 e2 34 a8 bd 9c 1d 82 be 9f ce 29 3d 86 d3 48 be
       -0.082132116 -0.25413215 0.041456815 -0.1961194
0003b0 46 08 5e be ce 73 a2 bd 4c 77 81 bc 9f fa 9a 3d
       -0.21682844 -0.07932244 -0.015803955 0.075673334
0003c0 59 3f 47 be 56 0e 63 bd ce 02 05 be 5d 29 63 be
       -0.19457759 -0.055433594 -0.12989351 -0.22183748
0003d0 9f 2c 98 bb ae 34 fc bd b0 bb a5 be f2 01 86 bd
       -0.004643991 -0.12314735 -0.32369757 -0.0654334
0003e0 7a 53 24 bd b6 25 ab be ee f6 30 be d0 fb 50 be
       -0.040118672 -0.3342721 -0.17281696 -0.20408559
0003f0 eb b1 72 bd 23 d5 79 3d ee 11 0c be 4b bf 49 be
       -0.059251707 0.06099428 -0.13678715 -0.19701879

layer1.1.running_mean f4 [256]
000000 ce ad 24 bf 5f 8e aa 3f 90 cf d7 3f b4 91 5f c0
       -0.64327705 1.3324698 1.6860218 -3.493268
000010 c3 96 43 c0 97 a7 9a 3f 3b 38 1b 3d 54 eb ff 3f
       -3.0560768 1.2082394 0.037895422 1.9993691
000020 38 5b 07 bf ac fd 75 bf 0e c2 92 bf d7 d0 8b bd
       -0.52873564 -0.960902 -1.1465471 -0.068269424
000030 0f 68 4d bf 38 f4 bc bf 1f 00 9a bf c9 a8 1a 3e
       -0.80236906 -1.476203 -1.2031287 0.15103449
000040 7e a0 3b c0 4b 9f 83 bf c6 75 80 bf 7d 96 05 40
       -2.9316707 -1.0282987 -1.0035942 2.08731
000050 ad 79 b2 bf 95 14 dc bf 1e 14 3d bf 33 98 88 3f
       -1.3943383 -1.7193781 -0.7385882 1.0671448
000060 f4 f9 b8 be 25 c1 01 c0 b4 2d 83 bf bf 6d 1d bf
       -0.361282 -2.0274136 -1.0248322 -0.61495584
000070 f5 76 78 bf 46 eb b2 3f be a3 02 c0 16 de 5a bf
       -0.97056514 1.397805 -2.041244 -0.85495126
000080 1c 41 c6 bd b8 16 d4 bf ab b8 0e 40 d5 e3 01 c0
       -0.096803874 -1.6569433 2.2300212 -2.0295308
000090 85 ed c0 bd 15 22 1d c0 e6 d1 11 c0 ac ea c4 be
       -0.09420303 -2.4552052 -2.2784362 -0.3846029
0000a0 e3 c3 70 bf 49 ca 17 c0 60 fe 80 3f e3 ae a8 3e
       -0.940489 -2.3717215 1.0077629 0.32945928
0000b0 79 63 9d be fb 45 7a bf 0c 42 0a c0 b9 ae fd 3e
       -0.30739954 -0.9776303 -2.1602812 0.49547365
0000c0 ac e2 d2 3f 5b fe 02 bf eb 0c fc 3f 8d 37 e0 3f
       1.6475425 -0.51169366 1.9691442 1.7516953
0000d0 76 db 1f bd 8f 9a 2e 3f d8 7d d6 3e 8a 91 72 bf
       -0.039027654 0.6820459 0.41892886 -0.94753325
0000e0 0e 64 4a bf 73 1e 16 bf 70 da 6a bf 86 9e 1d bf
       -0.7905892 -0.5864021 -0.9173956 -0.6157001
0000f0 f8 fe cf 3f 06 8f 0f bf ff 59 b2 bf 30 47 5a bf
       1.6249685 -0.5607761 -1.3933715 -0.85264874
000100 0f e8 3b be 16 d1 b1 3e a8 0a a2 be 39 0c 75 be
       -0.18350242 0.34729832 -0.31648755 -0.23930444
000110 a6 c1 fa 3d be 66 2a c0 9c 42 89 bf a4 9b 1e 3e
       0.12243967 -2.662521 -1.0723453 0.1548906
000120 7f d3 36 bf ad 41 45 3e 1a 96 ce bc d1 66 32 3f
       -0.7141647 0.19263335 -0.025218058 0.69688135
000130 37 2c 8b 3f 5d bf 1b 3e 2c 4a 40 c0 52 77 c6 3c
       1.0872868 0.15209718 -3.004527 0.024226818
000140 05 c1 05 bf 6a 7d d7 3e f3 ce 5a bf 86 b5 f4 bd
       -0.5224765 0.4208787 -0.8547203 -0.11948685
000150 30 f7 e7 3f 91 6a 02 3f 9e bf cd bf cf 79 34 c0
       1.8122311 0.5094386 -1.6074102 -2.8199346
000160 f5 ad 08 3f 8c cc 45 be 06 36 7c 3f 0b e8 af be
       0.5339044 -0.1931631 0.98519933 -0.34356722
000170 de 7b c6 bd 86 86 22 40 f5 0e f7 3e cb 07 42 3e
       -0.096915945 2.5394607 0.482536 0.18948285
000180 5e 20 05 bf 81 b3 4f 3f 83 f7 1b 3f 8d 02 cc 3f
       -0.52002513 0.81133276 0.6092455 1.5938278
000190 9d 1a 91 3f 5a 2f e0 bf 61 5c 11 c0 e7 90 e1 be
       1.1336247 -1.751445 -2.2712634 -0.44055864
0001a0 db 2c 4d bf 88 cd 18 3f f3 77 85 bf ff fa 15 c0
       -0.8014657 0.59688616 -1.0427231 -2.3434446
0001b0 aa aa 33 bf 97 09 33 bf 03 f9 b8 bf e4 44 62 bf
       -0.7018229 -0.6993651 -1.4450992 -0.8838637
0001c0 b3 f3 8d bf f0 02 fe bf 11 48 bf bf 46 57 7a bd
       -1.1089996 -1.9844646 -1.4943868 -0.061118387
0001d0 f3 87 bf bf 1a 9b db 3e 33 1c a3 bf 21 91 85 3f
       -1.4963363 0.4289177 -1.2742981 1.0434915
0001e0 90 4c 70 bf 2b d4 75 bf 15 7a 81 bf 2d cb c9 bf
       -0.93866825 -0.9602687 -1.0115381 -1.5765129
0001f0 19 4a 7d bf 9f dd c7 3e f7 05 d0 3b 1f 39 72 3e
       -0.9894119 0.3903627 0.0063483673 0.23654602
000200 7d d5 20 c0 9f b7 96 bf ea fe ff 3f fc 45 d8 3e
       -2.5130303 -1.1774787 1.9999669 0.42240894
000210 ad bc b6 be e5 1a dc 3f 20 07 56 bf 01 4b 6d 3f
       -0.35690823 1.7195708 -0.8360462 0.9269257
000220 a3 b5 02 c0 8a e6 55 40 ab bc 35 40 cf 65 02 be
       -2.0423362 3.342196 2.8396404 -0.1273415
000230 ba 7a 28 c0 60 6a 3b bf a6 0d 73 bf 75 cb 01 c0
       -2.6324906 -0.7320919 -0.949427 -2.028043
000240 97 4c 05 40 c8 16 67 be 5c 1f 2c 3e ad 6c 2c c0
       2.0827997 -0.22567284 0.16808838 -2.694133
000250 5e 30 b0 3f 7c c6 ff bf 48 cd 13 3f 93 bc ca be
       1.376476 -1.9982448 0.5773511 -0.39596996
000260 fc 6f 9e 3e 4a 08 16 be bd 3b 30 bf 9a 4a 57 c0
       0.30944812 -0.146516 -0.68841153 -3.3639283
000270 19 21 21 bf be 75 c9 bf e4 d9 a6 bf 8b 46 0e bf
       -0.6294113 -1.5739057 -1.3035245 -0.5557639
000280 ca f9 30 bf 05 aa af bf 3c f6 8c bd af 3f d5 bf
       -0.6913115 -1.3723761 -0.06882903 -1.666006
000290 70 21 e3 bf 61 94 05 be 68 a1 11 3f 89 e1 0b 3f
       -1.7744579 -0.13044883 0.5688691 0.54641014
0002a0 f2 61 6b 3f 46 2a 5f be c1 d5 f1 3e 4e 79 76 bf
       0.9194633 -0.2179347 0.47233394 -0.96278846
0002b0 95 bf 43 c0 a5 43 4a c0 bb 23 06 be 4e 03 88 be
       -3.0585682 -3.1603787 -0.13099568 -0.2656502
0002c0 2c 7a 0e c0 77 de 85 bf 0f 6e ed bf cb ed 6f 3f
       -2.2262068 -1.0458516 -1.8549212 0.9372222
0002d0 4f e7 a1 bf 6d aa 17 40 0f 30 2a be 46 17 18 bf
       -1.2648715 2.369777 -0.16619895 -0.5941051
0002e0 b8 e6 35 3f 49 48 2d 3f c9 16 a5 3f 6f 2b 1f c0
       0.71055174 0.67688423 1.2897578 -2.487026
0002f0 c8 f5 57 bf 46 67 8f 3d 41 78 a9 3f fb ca ce bf
       -0.8435941 0.0700212 1.3239824 -1.6155695
000300 30 2f ba 3f 6d e0 ab bf 45 ac 35 3f 4b eb ca 3f
       1.454565 -1.3427864 0.7096599 1.5853056
000310 2a 9e 86 3f 06 de 10 bf 3c 82 fd be 4c c4 9d 3e
       1.0517018 -0.5658878 -0.49513423 0.30813825
000320 f1 0f 81 3f f4 35 22 3d f2 db ae 3f dd dd 81 bf
       1.008299 0.039602235 1.3660872 -1.0145832
000330 ce f7 ae 3f ab 74 f5 bf 3c 99 eb bf 90 5c 9c 3e
       1.3669374 -1.9176229 -1.8406138 0.3053937
000340 79 1a 70 bf b4 9f 0c 3f b5 15 08 bf ff 8f f8 3e
       -0.93790394 0.5493119 -0.5315812 0.4854736
000350 16 f8 b0 bf 4a 92 a9 be 57 b5 3a 3f e2 4d 0b c0
       -1.382571 -0.33119422 0.7293295 -2.1766286
000360 6f 5b 09 3f 8b ea 2e c0 f3 08 11 3f 5d bf f5 3d
       0.5365514 -2.7330654 0.5665428 0.1199939
000370 62 81 96 bf 96 d6 50 40 d1 71 cb bf fb bd f0 3f
       -1.1758235 3.2630973 -1.5894109 1.8807977
000380 d7 69 e0 be 76 b4 97 3f 5c 61 e6 3f 5c c0 9a bf
       -0.4383075 1.1851947 1.7998462 -1.2089953
000390 1d 16 cb 3e 6d c9 e1 3f c3 11 e1 bf f8 74 65 3f
       0.3966531 1.7639595 -1.7583545 0.89631605
0003a0 75 47 1b 40 75 f2 16 3f 13 26 17 bf 6b b3 54 40
       2.4262364 0.5896371 -0.5904247 3.3234508
0003b0 0d b4 72 be 74 ce a5 bf ce 62 33 be e8 69 8d bf
       -0.23701496 -1.295363 -0.1751816 -1.1047945
0003c0 5d 64 54 3f 5c f5 9c 3e d7 da 80 3e 81 c6 b8 3d
       0.8296564 0.30655944 0.25166962 0.090222366
0003d0 7b b5 7a bf 00 78 35 40 ad c0 19 bb 6d 40 09 c0
       -0.9793317 2.8354492 -0.002346079 -2.1445572
0003e0 8e b8 be bf 9f 02 0f 3f aa f0 ba be 7e d2 a6 bf
       -1.4900072 0.55863374 -0.36511737 -1.3032987
0003f0 08 c6 8f 3e a7 3d f7 bf 28 c6 85 bf 14 44 12 bf
       0.28080773 -1.931569 -1.0451097 -0.5713513

layer1.1.running_var f4 [256]
000000 12 77 46 41 f5 0b a3 41 1d 83 21 41 eb 98 4a 41
       12.40407 20.380838 10.09451 12.6623335
000010 ef 62 2e 41 c3 91 15 41 67 39 6a 41 ae 0b c9 40
       10.899154 9.348086 14.639014 6.2826757
000020 25 3c 2b 41 a9 b4 1c 41 8f 6f 28 41 96 ff e0 40
       10.702184 9.7941065 10.527236 7.0311995
000030 6a 78 98 41 c1 d3 07 41 1b 49 92 41 eb ed 6e 41
       19.058796 8.489198 18.285696 14.933085
000040 c8 b1 78 41 8b a4 11 41 4a d3 1c 41 56 18 d1 40
       15.543404 9.102672 9.801584 6.5342207
000050 50 c8 3f 41 a8 44 3d 41 23 f6 6d 41 0c a1 37 41
       11.986404 11.829262 14.872592 11.476818
000060 ea 9c 4c 41 1d 3c 79 41 aa 12 40 41 17 38 00 41
       12.788309 15.577176 12.004557 8.013694
000070 b1 ff 25 41 c1 62 3c 41 9d 2c 09 41 e5 94 d4 40
       10.374925 11.77411 8.573392 6.6431756
000080 e0 ad 31 41 8e 8f 29 41 39 9b ab 41 1f f4 04 41
       11.10495 10.597548 21.450792 8.3096
000090 86 93 36 41 d1 13 f3 40 55 f3 3a 41 fc 84 ab 41
       11.411016 7.596169 11.684407 21.439934
0000a0 97 cf 4f 41 a0 da 0b 41 b4 c1 b7 41 04 79 b6 40
       12.988181 8.740875 22.969582 5.7022724
0000b0 ef 05 6b 41 c8 e2 7e 41 c8 44 5f 41 ae c2 b1 41
       14.688949 15.9303665 13.954292 22.220058
0000c0 d6 9d af 40 2c 64 40 41 6c 83 4f 41 ba 58 f8 40
       5.488017 12.024456 12.969585 7.760831
0000d0 dc 39 19 41 5e 33 87 41 71 19 83 41 6c 30 dc 41
       9.576626 16.900082 16.387423 27.523643
0000e0 b7 93 a4 41 06 6f 29 41 23 b4 c9 40 4e 43 f4 40
       20.572126 10.589605 6.3032393 7.633216
0000f0 3d 40 4c 41 f4 f0 25 41 0f 78 1e 41 5a 77 28 41
       12.765683 10.371326 9.904311 10.529139
000100 16 16 1f 41 b0 16 de 40 58 35 4e 41 0a d7 0c 41
       9.942892 6.9402695 12.888023 8.8025
000110 a8 21 b7 40 ef 84 f3 40 ef 37 4c 41 73 ec 6b 41
       5.7228584 7.6099772 12.763656 14.745227
000120 0a 96 55 41 bc c1 21 41 eb ba 78 41 a7 01 da 40
       13.349131 10.109798 15.545634 6.8127017
000130 ac e8 91 41 b6 77 70 41 c5 b2 30 41 d2 db ec 40
       18.23861 15.029226 11.043645 7.4018335
000140 7f 43 b3 41 79 ca 43 41 73 cd 34 41 42 40 04 41
       22.407957 12.236932 11.3001585 8.265688
000150 05 a4 3a 41 f2 e6 c4 41 0d f7 54 41 73 be 01 41
       11.665044 24.612766 13.310315 8.108996
000160 a1 6d 18 41 9a d9 3d 41 36 09 4e 41 a0 d0 0d 41
       9.526765 11.865625 12.877249 8.863434
000170 94 77 3d 41 91 cd e9 40 96 91 13 41 8b ed 4a 41
       11.841694 7.3063436 9.223043 12.682994
000180 f9 28 7e 41 b6 4b 51 41 9f 2a 25 41 8b 82 08 41
       15.885003 13.080984 10.322906 8.531871
000190 e6 f6 0e 41 aa 17 26 41 36 a4 49 41 b9 94 1c 41
       8.935278 10.380777 12.602591 9.786309
0001a0 05 0a 24 41 cc 29 16 41 01 da 5e 41 9e 66 f8 40
       10.252446 9.385204 13.928224 7.7625265
0001b0 3e aa 5c 41 4d 19 43 41 21 e3 49 41 f8 a4 72 41
       13.791563 12.193677 12.617951 15.165276
0001c0 34 fe 51 41 6a 0d 9e 41 b9 75 44 41 b2 72 4e 41
       13.124561 19.75655 12.278741 12.903002
0001d0 58 0b 31 41 21 59 aa 40 88 a5 4f 41 bf 0e fd 40
       11.065269 5.32338 12.977913 7.90805
0001e0 48 b1 67 41 5d 63 75 41 b8 86 65 41 53 33 52 41
       14.480782 15.336759 14.34539 13.13753
0001f0 3b a5 84 41 46 74 96 41 96 18 cd 40 aa ab 94 41
       16.580679 18.806774 6.409251 18.58382
000200 0d 06 34 41 45 1b 42 41 45 6c 3d 41 f0 57 85 41
       11.251477 12.131658 11.838933 16.667938
000210 2e 43 11 41 c6 17 2b 41 af 86 4e 41 e6 f0 f7 40
       9.078901 10.693304 12.907882 7.7481565
000220 1a c1 3f 41 65 d7 90 41 32 33 50 41 c9 b3 02 41
       11.984644 18.105173 13.012499 8.168893
000230 66 3d 09 41 50 d2 03 41 53 c8 2b 41 a2 a8 6e 41
       8.57749 8.238846 10.736407 14.91617
000240 b1 58 16 41 ec f4 68 41 ef 63 83 41 96 80 3a 41
       9.396653 14.559795 16.423796 11.656393
000250 a1 e8 01 41 0f 0f 35 41 24 83 8c 41 5f 55 13 41
       8.119294 11.316176 17.564034 9.208343
000260 7b 36 76 41 3b 70 4b 41 95 32 91 41 b2 dd 4e 41
       15.388301 12.7149 18.149698 12.929125
000270 ab ad bf 41 af 4d 67 41 d0 2b c0 41 66 dc 31 41
       23.959799 14.456466 24.021393 11.116308
000280 38 35 0c 41 db fb e8 40 30 60 f7 40 c9 ea 67 41
       8.762993 7.280744 7.7304916 14.494821
000290 ae 23 08 41 95 0c 66 41 d6 ad 5d 41 0b 0d e1 40
       8.508711 14.378072 13.85494 7.032842
0002a0 6c 81 a5 40 18 1d 1f 41 11 b8 3b 41 ee 94 a4 41
       5.1720486 9.944603 11.732438 20.57272
0002b0 e7 39 a7 41 b1 2a 03 41 b5 bc 1f 41 be 5f 46 41
       20.903273 8.197923 9.983571 12.398375
0002c0 56 b0 75 41 0e 1b 26 41 66 ca 12 41 4f 72 13 41
       15.355551 10.381605 9.174414 9.215407
0002d0 63 6b 2e 41 81 13 2c 41 0a 54 6d 41 c3 95 31 41
       10.901217 10.754762 14.833017 11.099063
0002e0 fe cb fe 40 16 2b 82 40 38 c6 7f 41 eb 0c 12 41
       7.9624014 4.0677595 15.985893 9.128154
0002f0 84 49 52 41 db a2 5d 41 16 df 13 41 c6 4a 05 41
       13.142948 13.85226 9.241964 8.330755
000300 3f 76 27 41 cd f2 8a 41 76 8b a2 40 58 a3 71 41
       10.466369 17.368555 5.079524 15.102379
000310 a2 33 3d 41 fb e6 6d 41 c4 a4 eb 40 27 4a 76 41
       11.825106 14.868892 7.363863 15.393104
000320 09 e1 9c 41 88 30 0c 41 14 95 87 41 b9 fc 62 41
       19.60988 8.761848 16.947792 14.1867
000330 a6 c0 7c 41 2d 06 35 41 b9 82 82 41 71 b3 76 41
       15.797033 11.314008 16.31383 15.418809
000340 55 fb 05 41 f0 e8 01 41 17 86 23 41 d7 5b 24 41
       8.37386 8.1193695 10.220237 10.272422
000350 84 c1 4d 41 93 de 38 41 c5 5a 98 41 0e 3f 5c 41
       12.859745 11.554339 19.044321 13.765394
000360 f5 08 1f 41 10 0a 93 41 33 a5 72 41 5c 8e a1 40
       9.939687 18.379913 15.165332 5.048628
000370 e4 c8 64 41 1b 49 21 41 2d df 2d 41 c1 6f da 40
       14.299046 10.080348 10.866986 6.826142
000380 b3 f0 6f 41 cb 3b 56 41 97 d8 be 40 4c 98 7b 41
       14.996264 13.389598 5.963939 15.724682
000390 b3 a8 6e 41 2d 5a d9 40 9e 0d 7c 41 f4 81 0f 41
       14.916186 6.792258 15.7533245 8.969227
0003a0 f1 d1 71 41 9a d1 0b 41 58 67 40 41 f9 5b 78 41
       15.113755 8.738672 12.02523 15.522454
0003b0 b9 fe 5e 41 e6 12 e5 40 06 b1 54 41 d4 31 97 41
       13.937188 7.158557 13.293219 18.89933
0003c0 8a 2a 36 41 10 49 3d 41 dc 10 29 41 e7 92 bd 40
       11.3853855 11.830338 10.566616 5.9241824
0003d0 86 f1 8b 41 7b e1 4f 41 ce 04 af 40 d0 87 52 41
       17.492931 12.992549 5.4693365 13.158157
0003e0 18 81 52 41 dc c3 1b 41 05 11 4d 41 fc f6 1e 41
       13.156517 9.735317 12.816655 9.935299
0003f0 01 77 ee 40 a3 09 19 41 a1 7e 2f 41 24 94 4f 41
       7.452027 9.564853 10.968415 12.973667

layer2.0.weight f4 [128, 256]
000000 d6 5a b4 3c 6e 25 ba bd 96 99 a4 bd 83 7b 19 be
       0.02201597 -0.090891704 -0.08037107 -0.14988522
000010 c6 dc d6 bc de 2f 77 bd 39 a5 a2 3d 57 4c 86 bd
       -0.02622832 -0.060348384 0.0794167 -0.065575294
000020 a0 34 0c 3c 08 49 1a bd ec 12 f0 bd 6c 05 6f 3d
       0.008557469 -0.037667304 -0.11722359 0.05835478
000030 b4 4c 6d 3c a6 74 79 3d e8 41 4f bd 34 4d 91 3d
       0.0144836195 0.06090226 -0.050599962 0.070948035
000040 52 e3 2e 3e b5 22 99 bc 8b 02 22 bd 17 54 2f be
       0.17078903 -0.018693307 -0.039553206 -0.17121921
000050 7b 34 a2 bc 6d c8 0d bd d5 42 45 bd 74 b7 ac bc
       -0.019800415 -0.03461497 -0.04815944 -0.021083571
000060 18 26 33 bd 77 99 29 3d b8 8b a4 bd 02 81 8f bd
       -0.0437375 0.04140612 -0.08034462 -0.07007028
000070 15 de 91 3c 9b a2 c5 3c a4 56 46 3c b9 86 9a bd
       0.017806092 0.024125388 0.012105618 -0.075452276
000080 b6 72 99 bd 4c f5 b9 3d a5 e8 f6 bd fb 87 2b 3d
       -0.074925825 0.0907999 -0.12056092 0.041877728
000090 d5 a2 f4 3d c9 87 80 bd a2 a8 07 bc c5 54 88 bd
       0.1194512 -0.06275899 -0.008279951 -0.066567935
0000a0 d8 0b 8f bc e0 3a 14 3d 34 42 21 bd be bc 73 3c
       -0.017461702 0.03618896 -0.039369777 0.014876543
0000b0 48 45 1f 3c a4 b1 cc bd cd b5 b7 3d 71 21 48 be
       0.009721108 -0.0999482 0.089702226 -0.19544007
0000c0 01 26 ef bd 47 a7 9d 3d e4 0c 18 ba 83 2c 0e 3e
       -0.116771705 0.07697921 -0.00058002607 0.13884167
0000d0 a7 4d 2c bd f6 21 1e bd bc 14 f6 bd 22 20 ab bc
       -0.042066243 -0.038606606 -0.120156735 -0.020889346
0000e0 c6 ed 1d 3c 8e 1d 21 3e a8 7c 13 be c1 3e 5f 3d
       0.009639209 0.1573393 -0.14403021 0.054503206
0000f0 5c 0c aa bd fd 11 95 3c 3d f1 fb 3c 28 01 35 3d
       -0.083031386 0.018197054 0.03075468 0.044190556
000100 40 97 fa 3d cd e8 60 bc ee 55 10 3e 21 a6 65 3d
       0.1223588 -0.013727379 0.1409528 0.056066636
000110 aa 18 80 3c f7 f9 1d 3e 83 4a cf bd 93 66 db bd
       0.01563676 0.15427385 -0.10121634 -0.10712924
000120 8d 73 24 bd 0d b6 20 3c 8f 7b 13 bc ed a7 4b 3d
       -0.04014926 0.009809029 -0.009001627 0.049720693
000130 49 aa a9 bd 2c 10 b9 bd 80 66 17 3e 18 2a 0a bd
       -0.082844324 -0.09036288 0.14785194 -0.03373155
000140 7f 03 a1 bd 75 a1 17 3e 1a 8c 07 3e d2 81 00 be
       -0.07861995 0.14807685 0.13237038 -0.12549523
000150 b3 52 9c 3c e7 1d 11 3e e6 84 f4 3c c4 9d b4 3d
       0.019082403 0.14171563 0.029848527 0.08819154
000160 0e 06 a6 3c 4f a4 1f bc 37 85 f6 b8 70 56 06 bd
       0.020266559 -0.009743764 -0.00011755007 -0.032797277
000170 5b bb f1 3b 16 de 8e bc cc 88 78 3d f6 5e 28 3d
       0.007377071 -0.017439883 0.060677335 0.041106187
000180 41 61 a6 bd bd cc 3e 3d f8 04 5e 3e fc c7 c6 bd
       -0.081240185 0.046581972 0.21681583 -0.09706113
000190 93 27 c8 bd 3e 32 89 3d 64 f3 99 3c ea 14 e9 3c
       -0.09773173 0.06699036 0.018792816 0.028452355
0001a0 4f 01 75 3d 01 4c 4d be 0a 01 a5 3d 98 39 12 3e
       0.0598157 -0.20048524 0.08056839 0.14279783
0001b0 bd 27 ae bd 14 04 5b 3d 7b 61 af 3c 51 33 91 3c
       -0.08503673 0.053470686 0.021408787 0.017724665
0001c0 31 da 36 3e 20 9d df bd e7 60 d6 3c 21 e4 7b bc
       0.17856671 -0.10918641 0.026169254 -0.015374214
0001d0 b3 d7 c8 bc 0d 87 ab bd cc 0a 75 3d ae 37 e4 3d
       -0.024516916 -0.08375368 0.05982475 0.111434326
0001e0 55 c2 0e 3e 01 d0 8d bc 9f 46 01 bd 4a a9 af 3d
       0.1394132 -0.017311098 -0.03156149 0.08577211
0001f0 27 46 0e bd 8c 51 c7 3c 12 00 46 3e f5 c9 a1 bd
       -0.03473487 0.024330877 0.19335964 -0.07899848
000200 8e 4d 4e 3d 28 e9 22 3e c0 6f 08 3e 2c f0 dd bd
       0.05036693 0.15909255 0.13323879 -0.10836825
000210 ad ac 1c 3e 25 1c f3 bc 23 c2 df 3d b1 e3 cd bd
       0.15300246 -0.029676506 0.109257005 -0.10053194
000220 a3 95 e9 bc dd d8 96 ba 44 78 51 bc 4b 56 07 be
       -0.028513735 -0.0011508722 -0.012785021 -0.13216512
000230 c3 1a d1 b9 5e 7e 9c bd 2c d4 f2 bd 33 ac f6 3c
       -0.00039883525 -0.0764129 -0.11856875 0.030111408
000240 b0 00 05 3d bc b0 b6 bd 13 15 0b 3d f8 04 64 3e
       0.03247136 -0.08920428 0.033955645 0.2226752
000250 70 65 62 3d 30 2d 9e bb e8 aa 09 3d 06 94 72 3e
       0.05527252 -0.004827164 0.033610255 0.23689279
000260 94 fb 76 3d 06 7d ec 3c c6 92 ab bc e1 a6 27 bd
       0.060298517 0.02886821 -0.02094401 -0.040930633
000270 66 41 4e 3d ef 53 2c bd 90 f3 6c 3d d2 77 01 3c
       0.050355338 -0.042072233 0.057849467 0.007902103
000280 a6 b0 43 bc 90 ed bc 3b 2a 8f 05 3e 93 da 83 3d
       -0.011943972 0.0057656243 0.13042894 0.06438174
000290 62 b6 94 bd 0c c1 f8 3d e2 32 5e bd c9 fd fa bd
       -0.07261349 0.12146196 -0.054247744 -0.12255437
0002a0 58 76 e3 bd 1c 34 8c 3d c1 e7 1f bd 14 0e 16 3e
       -0.11106557 0.068458766 -0.039039377 0.14653808
0002b0 75 e7 44 bc 1c b6 26 bd 35 49 57 bc 3b 4e f2 bd
       -0.012018074 -0.040701017 -0.0131400125 -0.118313275
0002c0 c9 75 c0 bc 82 77 04 3e 51 c2 09 be a0 fd 9b bc
       -0.023493664 0.12936214 -0.13453032 -0.019041836
0002d0 fb 2e 22 3e 42 a5 9d bd 2f 7b 19 be cb 53 bc 3d
       0.15838234 -0.07697536 -0.14988397 0.0919567
0002e0 e0 12 10 bd 0d 4a 08 be 4a 90 91 bc 33 e6 6f 3c
       -0.03517425 -0.13309498 -0.017768998 0.014642286
0002f0 52 cc b5 3d 11 e7 47 3d 41 61 83 bc a7 8c c0 3c
       0.08876862 0.048804346 -0.016037585 0.023504568
000300 92 a9 b4 bd ea b8 bc bd 83 79 12 be e9 04 4e be
       -0.088214055 -0.09214957 -0.14304166 -0.2011906
000310 a6 a5 54 bd 65 3b f8 bc 92 49 57 bd 91 71 69 bc
       -0.051915787 -0.030301759 -0.052560396 -0.014248268
000320 4f 28 ae bd b1 46 d6 bc 32 e8 00 be a7 a0 e6 3d
       -0.08503782 -0.026156755 -0.12588575 0.11261111
000330 ee 3e b8 bd 37 8e 79 3c 5f 21 97 3d 21 97 ef 3d
       -0.08996378 0.015231661 0.07379412 0.116987474
000340 13 c8 fa 3c e5 0b 6d bc c6 c3 58 3d 0a 1f 08 be
       0.030612981 -0.014468168 0.05292108 -0.1329309
000350 b2 c4 9d 3d 3e 57 e8 3c 86 8b fb bc 4c 7a c2 3c
       0.07703532 0.028361913 -0.030706178 0.023739956
000360 d8 34 62 be 25 a3 20 3e 65 49 aa 3d b7 ab 41 bd
       -0.22090471 0.15687235 0.0831478 -0.0472829
000370 6b 81 ec 3d e2 07 30 bd 2b e9 dd 3d 15 d8 f5 3b
       0.11548122 -0.042976268 0.10835489 0.0075025656
000380 e3 67 f0 bb 2d 5b 06 bd 9a 73 64 bd 57 bd 09 be
       -0.007336603 -0.032801796 -0.05577431 -0.13451134
000390 84 77 dd 3d ec 94 28 be 8d a8 a2 3d 6d 13 b5 bd
       0.108138114 -0.16463059 0.07942305 -0.08841596
0003a0 5f 00 52 bd cb a5 24 be 7c 1b e2 3d 40 eb 61 3d
       -0.051269885 -0.1607887 0.110403985 0.055155993
0003b0 dd e7 9d 3c 7b 5b 31 3c 99 43 da bb 6d 8b 66 be
       0.0192756 0.010825033 -0.0066608903 -0.22514124
0003c0 3e 41 1d 3d cf 04 f3 3c 8d 21 0a 3b fb ab 37 be
       0.038392298 0.029665379 0.0021077127 -0.17936699
0003d0 2c 4b 08 be ab 1e a1 bd 4e de 85 bd 99 ab 97 3c
       -0.13309926 -0.078671776 -0.06536542 0.018514441
0003e0 10 23 a5 3d 05 17 80 bc 5a e9 95 3d d7 f6 b5 bd
       0.08063328 -0.015635977 0.07319899 -0.088849716
0003f0 35 28 89 3d 38 9f 9b bd c7 5d fe bd d1 87 c9 bc
       0.06697122 -0.07598728 -0.1242023 -0.024600895
